model/model2.onnx (onnx, 891795 bytes, 54 tensors)

transformer.wte.weight f4 [39, 64]
00000000: fff9 8dbe 644d 343e b309 d7bd ad7e 42bf
00000010: ead4 46bf 664e bf3f 3422 883f d1cc 86bf
00000020: 5212 47bf e255 adbf be26 0e3f 1139 16bf
00000030: a01d b6bf 9a19 a03d a038 d43f b98b d1bf
00000040: 658f a63f 5183 bb3e 5c7f 4ebf 0d0f 13bf
00000050: 1aea 693f e2cf 11bf 55f1 163e 93be 17c0
00000060: bed2 1a3e 9bbb 1f3e 5264 c2be aeac 3f3f
00000070: aa23 983f 6893 643e 6d58 1140 5685 a4be
00000080: f757 bf3e e75a 963f 99aa 8a3f 0b47 b6bf
00000090: 1c42 2b3f 7445 2bbe b64f 463f 2283 843f
000000a0: 9015 313e ce67 27be 14f0 eabf 5263 9b3e
000000b0: 987d 08bf 9e13 e23f 7f5b f13f c8c0 d7bf
000000c0: 0690 7e3f 72b1 de3e 8e3d 98bd 9a38 ab3e
000000d0: db1c a3be b160 3c3f 6ef0 fabd f69c 7d3f
000000e0: 3b20 b2be f60a 50bf 1841 12bf d48f 3fbf
000000f0: 53da 53bf 5788 dabd 9ce9 473f 7672 54bf
00000100: 2cd6 c4bf 7952 603f 18be dbbf d5d0 5ebf
00000110: 3ff6 a7bd 4e25 513e 91ee 543f c5e9 773e
00000120: 21b7 fc3f 29dc 483f b5fe 08bf 0eb5 69bf
00000130: 14df c83e b0c9 803f cbef 3dbe 8a95 bdbc
00000140: 6b45 afbe 45a3 ccbf 560c 0540 b7a7 04bf
00000150: 1885 12bd de72 adbe 806a 3e3d a3a3 66bf
00000160: 7503 c13f 15da dbbf 1903 18bf eb3e b03f
00000170: eade 5f3f 6966 cabf e865 a13d 223e 35bf
00000180: 1b9f 17bf 6d24 623e cfd9 813f d7e0 8abf
00000190: cb65 7b3e 9058 c9be f996 f83e fcf6 02bf
000001a0: d5b7 8ebf f1bc cf3e e05e 44bf 7ab3 59bf
000001b0: 5031 4fc0 c893 f83f beba babe b2c9 5dbf
000001c0: 9061 fe3e 1f84 853f 03c7 1bbf ca47 bebc
000001d0: 7c50 b6be dc17 0bbe a349 50bf 8f69 243f
000001e0: 98c0 973e f67b ff3e 9c24 e7be 80fc 123f
000001f0: f15e e63f 13af 013f 3806 12bf d3a7 e7be
00000200: 174e 393e 44fb 4b3e 7e8c 973f 68bf 15bd
00000210: a18a d63f a497 b73e b0ab a73e b9fb 853f
00000220: 9451 5f3f 0f5b 163f 7cf1 24bf cf4e 32bf
00000230: 366d a33e 0b4d 613f a3a0 6fbf 5c5c 163e
00000240: 9315 0d40 79a5 8abf 40fc ccbf 975e 9fbf
00000250: f52f 71bf 5259 f23d 42c0 dd3d 422c 6d3f
00000260: 9765 82bf 89e9 103d c6d2 a2bf 4943 c63f
00000270: c942 5a3f f4fb 963f 337f f9bd e772 c1bf
00000280: dbb5 d4bf 27e2 1d3f 8ace e33e bf48 3cbe
00000290: 587d c03f 1357 7dbf e8bb 2e3d 8728 d03f
000002a0: fabc 06bd 2fd7 b03e cc6e 7dbf 997d 1340
000002b0: ef73 b33d 1d95 89bf 9751 563f 7581 a63f
000002c0: a4dc e5bd 305e 31be f886 2e3f 3d48 62be
000002d0: 6b35 09c0 f99c 2e3f c344 043f 5e80 a0be
000002e0: 1511 123f 2bd8 42bf b1a5 26bf 418d 853f
000002f0: 96e3 793e e5eb 32be 04fe bdbf a262 aebf
00000300: 4285 b1be c89a 77be 7227 9d3c 61bd 683e
00000310: ac1b 60bf d2cc 923f 480c b2bf a533 d1be
00000320: ea8e bebf 9023 c13e 6eb0 ebbe 0ec9 68bf
00000330: 2765 87bf 489d f53e b451 953e e13a 3b40
00000340: bf2b ed3e 04d6 9e3e 3287 523f 1a00 b73f
00000350: df11 103f 6fc2 02c0 94d4 42bf b3d5 17bf
00000360: 70e1 e03f 4e5c 1e3e 2284 16be edfe e5be
00000370: 0e71 8c3f c834 c53f ecbd b9bf 22a8 b53f
00000380: 164d 5fbe 9896 f4be 303a 893f a09b 6bbf
00000390: 1c46 3bbd b4dd 24bf f013 8d3e af87 f23f
000003a0: 76a0 523e 97a7 ad3d 4fb9 aa3f 4eb6 d43f
000003b0: acd5 58bf 29c5 bd3e bdc0 a43f 9bbc 85bb
000003c0: 32f5 4f3c 7363 223f ad0a debd 762c 19bc
000003d0: 49c8 18c0 1bef a9bf 7c59 babe d10c 7f3e
000003e0: 4453 473e 7cec 3ebf ae2f 803e 236e 15c0
000003f0: f951 c73f 31a9 023f cb1c 853e f5f5 14c0
-0.27729794 0.17607647 -0.10499897 -0.7597454 -0.7766863 1.49458 1.0635438 -1.0531255
-0.7776233 -1.3541834 0.55527866 -0.58680826 -1.4227791 0.07817383 1.657978 -1.6370765
1.301251 0.36623624 -0.80663085 -0.5744484 0.91372836 -0.5695783 0.14740498 -2.3710067
0.15119454 0.1559891 -0.37967163 0.74872863 1.1885884 0.22321856 2.271022 -0.32132977
0.373718 1.1746491 1.0833312 -1.424043 0.6689775 -0.16725713 0.7746538 1.0352519
0.17293382 -0.16348192 -1.8354516 0.30349213 -0.5331664 1.7662237 1.8856047 -1.6855707
0.9943851 0.43494755 -0.074336156 0.3344162 -0.31857952 0.7358504 -0.122528896 0.9906763
-0.34790215 -0.81266725 -0.57130575 -0.7482884 -0.8275501 -0.10670536 0.78090835 -0.82987154
-1.537786 0.87625843 -1.7167387 -0.870374 -0.082012646 0.20424387 0.83176523 0.2421027
1.9743387 0.7846094 -0.5351365 -0.9129189 0.39232695 1.006155 -0.18548505 -0.023142595
-0.3423265 -1.5987326 2.078878 -0.5181841 -0.03577146 -0.338767 0.046488285 -0.9009344
1.507918 -1.7175928 -0.59379727 1.3769201 0.87449515 -1.5812503 0.07880765 -0.7079793
-0.5922715 0.22084208 1.0144595 -1.0849866 0.2455055 -0.3932538 0.48552683 -0.5115812
-1.1149851 0.40573838 -0.7670727 -0.85039485 -3.2373848 1.9420099 -0.36470598 -0.8663589
0.4968381 1.0430945 -0.6085054 -0.023227591 -0.3560828 -0.1358332 -0.8136236 0.6422357
0.29639125 0.49899262 -0.45145118 0.57416534 1.7997724 0.5065777 -0.5704074 -0.45245227
0.18096195 0.19920069 1.183975 -0.036559492 1.6761056 0.3585788 0.32748175 1.0467445
0.87233853 0.58732694 -0.64430976 -0.696515 0.3191926 0.88008183 -0.9360449 0.1468367
2.2044418 -1.0831748 -1.601448 -1.2450742 -0.942138 0.11833443 0.10827686 0.9264566
-1.0187253 0.035378966 -1.2720573 1.5489284 0.85258156 1.179564 -0.121824645 -1.511319
-1.6617998 0.61673206 0.44493514 -0.18387125 1.5038252 -0.9896099 0.04265967 1.6262368
-0.032895066 0.34539172 -0.9899719 2.3045409 0.08762347 -1.0748631 0.83718246 1.3008257
-0.112237245 -0.17321086 0.68174696 -0.22097869 -2.1438854 0.6820827 0.5166742 -0.31347936
0.57057315 -0.76111096 -0.65096575 1.0433732 0.24403223 -0.17472799 -1.4843144 -1.362385
-0.3467198 -0.24180138 0.019183848 0.22728492 -0.87542224 1.1468756 -1.3909998 -0.40859714
-1.4887364 0.37722445 -0.46033043 -0.90931785 -1.0577744 0.4797156 0.29163897 2.9254687
0.46322438 0.31022656 0.8223754 1.4296906 0.5627727 -2.0431173 -0.7610562 -0.59310454
1.7568798 0.15464899 -0.14698842 -0.44921055 1.0972002 1.5406733 -1.4511085 1.4191935
-0.2180675 -0.47771144 1.0720882 -0.9203434 -0.04572116 -0.6440079 0.27554274 1.8947657
0.20569023 0.08479231 1.3337802 1.6618135 -0.8470104 0.37064484 1.2871319 -0.0040813214
0.012692736 0.63433 -0.1084188 -0.009348979 -2.3872244 -1.3276094 -0.36396396 0.24907233
0.19465357 -0.74579597 0.25036377 -2.3348472 1.5571891 0.51039416 0.2599853 -2.327512

transformer.wpe.weight f4 [51, 64]
00000000: 2d4c a1bf 4ee6 353f 83b4 833f b2dc 30bf
00000010: e44d fd3e 445d 8bbd 1fa0 173e e075 31bf
00000020: 0b91 b9be c3cc 423d 1824 5cbe 9ce9 913f
00000030: 1331 fb3e ecb0 3fbf 4b2e 54be 2f85 a13f
00000040: 08c2 c3bf f950 20bf 2228 9b3f 3b6e 533f
00000050: 4250 313f f258 65bf a8d7 f23c daf8 cbbf
00000060: 2b09 a83d 986a c2bf 106d 8e3f d046 663f
00000070: c750 033e 2afc 4e3f ea5e 133f 776c 05bf
00000080: ed42 0d40 0b54 223f da77 46bf 13a2 0dbe
00000090: 9591 9ebf be6f eb3e fafa ddbf 389b b73f
000000a0: 0155 66be bad4 363f a545 cabf ce37 73bf
000000b0: a8a9 4abf 01c9 953f ae7d ab3e 82e6 55bf
000000c0: 6eda 3fbf 728f e0be 15be e73e 3db2 f4be
000000d0: 766c 1c40 ba34 003f 571a b93e ec4f a43e
000000e0: af5f eb3e 25fa 1e3e 202e ae3f d40c 97bf
000000f0: 32d7 e1bf 07c7 163d be07 01bf ba04 bebf
00000100: afe8 03bf c829 5cbe 840d 993f 531e 90bd
00000110: b589 dcbf 6423 573e e903 b3bf ae1d 14be
00000120: e733 e2bd 2c41 28bf d3ad 2fbf ef83 9bbe
00000130: d632 2abf 1d63 5b3d 7340 36bf 1025 f83e
00000140: 434d 3a3f b473 133f 67fd c3be 80e1 5dbf
00000150: 084a 9bbf 8db7 5ebf 422a dfbf a8d8 b43f
00000160: 8b1b 88bf e098 41bf 3587 98be 06d9 593f
00000170: 9c13 923d 0b47 4d3f 8ae8 d33e 5e83 a13f
00000180: c111 8bbf 0283 223e 74ee 7fbf 9ea5 f43e
00000190: 31d9 c4bf a26c 263e 14fd 923e 3145 cbbf
000001a0: 6faf 8abf 6aec a83f d2c7 f33e c4ee 023e
000001b0: 7218 4b3f abcd e13f 5098 ef3f dd5b f13e
000001c0: fe55 47bf e2ee 05c0 4cae 22be f323 97bf
000001d0: e91d 7f3f cfce 863f 35fb 0cbf c54f 0ebd
000001e0: 1b3c 973d fdcb 1cbc 0aaf f3bf 95ee 1ec0
000001f0: 4c3b e4bf 2d82 83be bee0 03be b5ae 88bf
00000200: 9e23 9cbe dd81 fa3f 5c7e 643f 0582 90bf
00000210: 8b89 2d3f e572 a03f 24cb 38be 18cb a53f
00000220: a8e9 b43e 8a2b e0be 1f8a b1be 57b3 403f
00000230: 923b cbbe aaac 3fbf 1a86 d63f cf1c b43e
00000240: e68c b43e 363f 82be 0eeb b1bf 9b1b b4bd
00000250: d3c1 063f 55c4 f03f 8955 4d3f c7a7 fabe
00000260: ba17 eb3f ab93 e6bf 03e4 453f 7c7d e13e
00000270: 7835 9abf b9ca 15bf 01a6 49bf 5be1 2240
00000280: 3f83 ff3e 43ec 9a3f c822 2dc0 37d5 533f
00000290: 957a d03e b295 6c3f e98c 41bf cb3d 17bf
000002a0: d0c2 0ebe 07c6 9d3e 20df 2240 4d63 0abd
000002b0: 068e c43f ba82 41bf 1589 20bf a829 583e
000002c0: 70fc 38bf 5a19 a03f 5ef7 f1bf 598b 1ebe
000002d0: 05de e23e d576 df3f bbb4 b6be a6c2 48bf
000002e0: 90b2 f8bf c111 acbf 2da5 0ebf 7721 0bc0
000002f0: b277 923f 0e04 babe 613f ec3f 61e7 7d3f
00000300: bb4b 793e ab28 fa3d 07c4 803f 02cb 39bf
00000310: 43c9 8b3f f083 3abf 9af8 8d3d dc14 89be
00000320: 0005 003f 6863 c9bf 8233 a93e c595 f13f
00000330: 945f babe 00b8 84be 4a7b 993e a5d7 0240
00000340: 10d7 4e3f be35 bf3f ff7b e7bd 8ef2 063e
00000350: 33da 52bf a9c4 dc3e 44a2 48bf 7a49 1540
00000360: 7c41 163f f27e d73e df03 4abf 93a0 883e
00000370: 1c44 9c3f 4a27 ce3b 7435 66bf 7586 20bf
00000380: 2ad7 8dbd eb74 0fbf 5370 6fbf b337 c6bf
00000390: 46af d6bf 21db ad3f af86 733f 815c 833e
000003a0: 9aae a4bf 188d 9f3f 1cca 0bc0 b8e9 8ebf
000003b0: 4b7c bebe 73c7 0cc0 1276 653f 4f58 bf3e
000003c0: 796a a53c 8d90 9d3e 125b 853e 0840 933e
000003d0: 8c1a e5be 2bbb 93bd 20cc e33f d3dd 363e
000003e0: f817 a6bf 1717 bf3f 5505 c93d d004 1bbf
000003f0: 654e a2bf 84f0 03c0 7d6b ae3e eb7f b1bf
-1.2601372 0.7105454 1.0289463 -0.69086754 0.49473488 -0.068048984 0.14807175 -0.6932049
-0.36243472 0.047558557 -0.21498144 1.1399417 0.49060878 -0.74879336 -0.20720784 1.261877
-1.5293589 -0.62623554 1.2121623 0.82590073 0.6926309 -0.89588845 0.029643849 -1.5935318
0.08204874 -1.518878 1.1127033 0.899518 0.12823783 0.8085352 0.575667 -0.5211863
2.2072098 0.6340949 -0.7752663 -0.13831358 -1.2388178 0.4598369 -1.7342217 1.4344244
-0.22493364 0.71418345 -1.5802504 -0.95007026 -0.79165125 1.1701967 0.33494323 -0.8355485
-0.7494267 -0.4385944 0.4526221 -0.47792235 2.44412 0.50080454 0.36152908 0.32092226
0.45971438 0.1552511 1.3607826 -1.180079 -1.7643797 0.0368109 -0.5040244 -1.4845192
-0.5152692 -0.21500313 1.195725 -0.07037034 -1.7229525 0.21009594 -1.3985568 -0.14464447
-0.11045056 -0.65724444 -0.6862461 -0.30374095 -0.6648382 0.05356132 -0.7119209 0.48465776
0.7277414 0.57598424 -0.38279268 -0.8667221 -1.2131968 -0.86998826 -1.7434771 1.4128618
-1.0633405 -0.75623894 -0.29790655 0.85096776 0.071326464 0.8018653 0.4138835 1.2618215
-1.0864793 0.15870288 -0.99973226 0.47782606 -1.5378782 0.16252378 0.28708708 -1.588049
-1.0834788 1.3197148 0.47613388 0.12786394 0.79334176 1.764089 1.8718357 0.471404
-0.7786559 -2.0927052 -0.15886801 -1.1807846 0.99655014 1.0531863 -0.5507081 -0.034744043
0.07384511 -0.009570119 -1.9037793 -2.483312 -1.7830596 -0.25685254 -0.12878701 -1.0678316
-0.30495924 1.9570881 0.8925531 -1.1289679 0.67788 1.2535063 -0.18046242 1.2952604
0.35334516 -0.43783218 -0.3467569 0.7527365 -0.39693886 -0.7487284 1.6759675 0.3517823
0.35263747 -0.2543885 -1.3899858 -0.08794328 0.526395 1.8809916 0.8020864 -0.4895613
1.8366616 -1.8013815 0.77301043 0.4404105 -1.2047567 -0.58512455 -0.78768927 2.5450046
0.4990482 1.2103351 -2.7052479 0.82747215 0.40718523 0.92415917 -0.75605637 -0.59078664
-0.13941503 0.30815145 2.5448685 -0.033786107 1.5355842 -0.755901 -0.6270917 0.2110964
-0.7226019 1.2507737 -1.8903615 -0.15482844 0.44310012 1.745814 -0.3568476 -0.7842201
-1.9429493 -1.3442918 -0.5572079 -2.1739175 1.1442778 -0.36331218 1.8456842 0.9918118
0.24345295 0.12214788 1.0059823 -0.7257539 1.0920795 -0.7285757 0.069321826 -0.26773727
0.5000763 -1.5733461 0.3304711 1.8873831 -0.36401045 -0.2592163 0.29976875 2.044412
0.8079691 1.4938276 -0.11302947 0.13178465 -0.82364196 0.4311879 -0.783726 2.3326097
0.5869367 0.4208904 -0.78912157 0.26685008 1.2208285 0.0062913047 -0.89925313 -0.62705165
-0.06925805 -0.5603778 -0.9353077 -1.5485748 -1.6772239 1.3582498 0.95127386 0.25656512
-1.2865784 1.2464933 -2.1842108 -1.1165075 -0.37204203 -2.1996734 0.89633286 0.37372062
0.020192372 0.30774346 0.26046044 0.2875979 -0.44746816 -0.07213434 1.7796669 0.17858057
-1.2976065 1.4928921 0.0981547 -0.6055422 -1.2680174 -2.061555 0.34066382 -1.3867162

transformer.h.0.ln_1.weight f4 [64]
00000000: 8f3b 843f 5ea3 873f e9ce 813f 78b1 853f
00000010: 15bf 853f 5135 853f 3383 863f b429 893f
00000020: 7dc3 843f 8e12 853f 88c5 843f e1f3 8a3f
00000030: 02e7 803f a03c 843f 31f0 873f 12bb 823f
00000040: ecdf 883f 7268 853f a253 863f 9a01 8b3f
00000050: cfa1 833f e505 813f 6ed3 883f 9e37 853f
00000060: fc41 863f c97d 843f 135e 843f 3bda 813f
00000070: 8105 843f c430 893f a911 813f 93ba 853f
00000080: 6ee3 873f 02e7 823f 9371 883f 0d2a 843f
00000090: d481 863f 04aa 863f 329c 7e3f 06a6 853f
000000a0: 1ada 823f bd7f 813f 2e8f 853f 00ea 833f
000000b0: 350d 853f 4db8 863f 6839 823f 22b3 853f
000000c0: 439e 8a3f ec0d 893f e7f1 863f d4e7 863f
000000d0: 611e 843f 0df6 813f b121 883f 7565 873f
000000e0: 04d0 863f bbd2 893f f480 8a3f f49a 853f
000000f0: 07d3 853f dd8a 8d3f ecbd 853f c8f0 823f
1.0330676 1.0596731 1.0141269 1.0444784 1.0448939 1.0406896 1.0508789 1.0715852
1.0372158 1.0396287 1.0372782 1.0855676 1.0070498 1.0331001 1.0620176 1.0213339
1.0693336 1.0422499 1.0494273 1.0859864 1.0283755 1.0079924 1.0689523 1.0407598
1.0488887 1.0350887 1.0341209 1.0144724 1.031418 1.0718007 1.0083514 1.0447563
1.0616281 1.0226748 1.065966 1.0325333 1.050837 1.0520635 0.99457085 1.0441291
1.0222809 1.0117108 1.043432 1.0305786 1.0394655 1.0524994 1.0173769 1.0445292
1.0829548 1.0707374 1.0542573 1.0539498 1.0321771 1.0153214 1.0635282 1.0577837
1.0532231 1.0767435 1.0820603 1.0437913 1.0455025 1.1058003 1.0448585 1.0229731

transformer.h.0.ln_1.bias f4 [64]
00000000: 2ffe ffba a784 6fbc c0cb cebb 5b1f 703b
00000010: c1fe f83b 1ff0 34bc efe8 feba 269a 2cbb
00000020: abea 323c 47e5 25bc 5e51 36bb fa8a 653c
00000030: c30b dfbc 0cf6 b23b 3cef 6c3b 61ae 87bc
00000040: 78bc 413c 5a50 5c3a bfd2 5e3b aa05 c73a
00000050: 38ff 44ba 6f65 a23b 4791 963a ae7c bb3b
00000060: a91c 18bb 5b8b 46bc c3bf 453c 325e 2abc
00000070: d78c 06bc 162f a3bb e3b3 23bc 7042 59bb
00000080: 91b1 403c d07c 053b 4dea daba 3a41 6f3c
00000090: a5fb f33a d4ee eab9 6223 00bb e4c7 a3bb
000000a0: 1d66 7b3c fe43 203c 0870 8db9 81f6 4cbc
000000b0: e004 26bb 8f1b 15bc 546c 83bc 0e6b 053c
000000c0: ba1d f4bb 9213 3a3c 61b3 8cbb a8be b83b
000000d0: da43 19bc 1e6c 47bc d9eb 7dbc 3ee4 b1bb
000000e0: 9525 42ba 7128 c9bb 8f0c 27bb 89f4 5f3c
000000f0: 5fc4 663c ea9c 35bb 5c97 ab3a f6cc 463a
-0.0019530709 -0.014619029 -0.00631091 0.0036639783 0.0075987284 -0.011043577 -0.0019448082 -0.0026336997
0.010920207 -0.010125465 -0.0027819495 0.014010185 -0.027227288 0.00546146 0.0036153337 -0.016562643
0.01182472 0.00084043073 0.0034000126 0.0015184183 -0.0007514837 0.0049559395 0.0011487388 0.00572165
-0.0023210442 -0.012118186 0.012069645 -0.0103984345 -0.00821229 -0.0049799783 -0.009991619 -0.0033151172
0.011761085 0.0020368584 -0.0016701907 0.014602954 0.0018614425 -0.000448099 -0.001955234 -0.004998194
0.01534417 0.009781836 -0.00026977086 -0.012509943 -0.0025332496 -0.009100809 -0.016042866 0.0081432
-0.0074498327 0.011357205 -0.0042938446 0.0056379624 -0.009354556 -0.012171773 -0.015498125 -0.00542882
-0.0007406113 -0.006138854 -0.0025489663 0.013669142 0.014084904 -0.0027711936 0.0013091373 0.0007583642

transformer.h.0.attn.bias f4 [1, 1, 51, 51]
00000000: 0000 803f 0000 0000 0000 0000 0000 0000
00000010: 0000 0000 0000 0000 0000 0000 0000 0000
00000020: 0000 0000 0000 0000 0000 0000 0000 0000
00000030: 0000 0000 0000 0000 0000 0000 0000 0000
00000040: 0000 0000 0000 0000 0000 0000 0000 0000
00000050: 0000 0000 0000 0000 0000 0000 0000 0000
00000060: 0000 0000 0000 0000 0000 0000 0000 0000
00000070: 0000 0000 0000 0000 0000 0000 0000 0000
00000080: 0000 0000 0000 0000 0000 0000 0000 0000
00000090: 0000 0000 0000 0000 0000 0000 0000 0000
000000a0: 0000 0000 0000 0000 0000 0000 0000 0000
000000b0: 0000 0000 0000 0000 0000 0000 0000 0000
000000c0: 0000 0000 0000 0000 0000 0000 0000 803f
000000d0: 0000 803f 0000 0000 0000 0000 0000 0000
000000e0: 0000 0000 0000 0000 0000 0000 0000 0000
000000f0: 0000 0000 0000 0000 0000 0000 0000 0000
00000100: 0000 0000 0000 0000 0000 0000 0000 0000
00000110: 0000 0000 0000 0000 0000 0000 0000 0000
00000120: 0000 0000 0000 0000 0000 0000 0000 0000
00000130: 0000 0000 0000 0000 0000 0000 0000 0000
00000140: 0000 0000 0000 0000 0000 0000 0000 0000
00000150: 0000 0000 0000 0000 0000 0000 0000 0000
00000160: 0000 0000 0000 0000 0000 0000 0000 0000
00000170: 0000 0000 0000 0000 0000 0000 0000 0000
00000180: 0000 0000 0000 0000 0000 0000 0000 0000
00000190: 0000 0000 0000 0000 0000 803f 0000 803f
000001a0: 0000 803f 0000 0000 0000 0000 0000 0000
000001b0: 0000 0000 0000 0000 0000 0000 0000 0000
000001c0: 0000 0000 0000 0000 0000 0000 0000 0000
000001d0: 0000 0000 0000 0000 0000 0000 0000 0000
000001e0: 0000 0000 0000 0000 0000 0000 0000 0000
000001f0: 0000 0000 0000 0000 0000 0000 0000 0000
00000200: 0000 0000 0000 0000 0000 0000 0000 0000
00000210: 0000 0000 0000 0000 0000 0000 0000 0000
00000220: 0000 0000 0000 0000 0000 0000 0000 0000
00000230: 0000 0000 0000 0000 0000 0000 0000 0000
00000240: 0000 0000 0000 0000 0000 0000 0000 0000
00000250: 0000 0000 0000 0000 0000 0000 0000 0000
00000260: 0000 0000 0000 803f 0000 803f 0000 803f
00000270: 0000 803f 0000 0000 0000 0000 0000 0000
00000280: 0000 0000 0000 0000 0000 0000 0000 0000
00000290: 0000 0000 0000 0000 0000 0000 0000 0000
000002a0: 0000 0000 0000 0000 0000 0000 0000 0000
000002b0: 0000 0000 0000 0000 0000 0000 0000 0000
000002c0: 0000 0000 0000 0000 0000 0000 0000 0000
000002d0: 0000 0000 0000 0000 0000 0000 0000 0000
000002e0: 0000 0000 0000 0000 0000 0000 0000 0000
000002f0: 0000 0000 0000 0000 0000 0000 0000 0000
00000300: 0000 0000 0000 0000 0000 0000 0000 0000
00000310: 0000 0000 0000 0000 0000 0000 0000 0000
00000320: 0000 0000 0000 0000 0000 0000 0000 0000
00000330: 0000 803f 0000 803f 0000 803f 0000 803f
00000340: 0000 803f 0000 0000 0000 0000 0000 0000
00000350: 0000 0000 0000 0000 0000 0000 0000 0000
00000360: 0000 0000 0000 0000 0000 0000 0000 0000
00000370: 0000 0000 0000 0000 0000 0000 0000 0000
00000380: 0000 0000 0000 0000 0000 0000 0000 0000
00000390: 0000 0000 0000 0000 0000 0000 0000 0000
000003a0: 0000 0000 0000 0000 0000 0000 0000 0000
000003b0: 0000 0000 0000 0000 0000 0000 0000 0000
000003c0: 0000 0000 0000 0000 0000 0000 0000 0000
000003d0: 0000 0000 0000 0000 0000 0000 0000 0000
000003e0: 0000 0000 0000 0000 0000 0000 0000 0000
000003f0: 0000 0000 0000 0000 0000 0000 0000 803f
1.0 0.0 0.0 0.0 0.0 0.0 0.0 0.0
0.0 0.0 0.0 0.0 0.0 0.0 0.0 0.0
0.0 0.0 0.0 0.0 0.0 0.0 0.0 0.0
0.0 0.0 0.0 0.0 0.0 0.0 0.0 0.0
0.0 0.0 0.0 0.0 0.0 0.0 0.0 0.0
0.0 0.0 0.0 0.0 0.0 0.0 0.0 0.0
0.0 0.0 0.0 1.0 1.0 0.0 0.0 0.0
0.0 0.0 0.0 0.0 0.0 0.0 0.0 0.0
0.0 0.0 0.0 0.0 0.0 0.0 0.0 0.0
0.0 0.0 0.0 0.0 0.0 0.0 0.0 0.0
0.0 0.0 0.0 0.0 0.0 0.0 0.0 0.0
0.0 0.0 0.0 0.0 0.0 0.0 0.0 0.0
0.0 0.0 0.0 0.0 0.0 0.0 1.0 1.0
1.0 0.0 0.0 0.0 0.0 0.0 0.0 0.0
0.0 0.0 0.0 0.0 0.0 0.0 0.0 0.0
0.0 0.0 0.0 0.0 0.0 0.0 0.0 0.0
0.0 0.0 0.0 0.0 0.0 0.0 0.0 0.0
0.0 0.0 0.0 0.0 0.0 0.0 0.0 0.0
0.0 0.0 0.0 0.0 0.0 0.0 0.0 0.0
0.0 1.0 1.0 1.0 1.0 0.0 0.0 0.0
0.0 0.0 0.0 0.0 0.0 0.0 0.0 0.0
0.0 0.0 0.0 0.0 0.0 0.0 0.0 0.0
0.0 0.0 0.0 0.0 0.0 0.0 0.0 0.0
0.0 0.0 0.0 0.0 0.0 0.0 0.0 0.0
0.0 0.0 0.0 0.0 0.0 0.0 0.0 0.0
0.0 0.0 0.0 0.0 1.0 1.0 1.0 1.0
1.0 0.0 0.0 0.0 0.0 0.0 0.0 0.0
0.0 0.0 0.0 0.0 0.0 0.0 0.0 0.0
0.0 0.0 0.0 0.0 0.0 0.0 0.0 0.0
0.0 0.0 0.0 0.0 0.0 0.0 0.0 0.0
0.0 0.0 0.0 0.0 0.0 0.0 0.0 0.0
0.0 0.0 0.0 0.0 0.0 0.0 0.0 1.0

transformer.h.0.attn.c_attn.bias f4 [192]
00000000: 3b48 6cbc e644 10bc 7653 d0bc b371 443d
00000010: 5dba 98bd e438 193e 289c ecbd aea6 a93d
00000020: 0dba 953d 6421 233d 6692 083e 0a0f 503d
00000030: 2362 4e3c 812f e53d ef83 f6bd 421a efbc
00000040: e3bb 713d 90d2 b7bc b0a4 513d bb5c 15bd
00000050: 03b7 ba3d 461d 293d 9d46 8b3c 7a64 663d
00000060: 1361 4cbd c391 963d 9577 44bd b2c1 c1bd
00000070: 34a8 7dbd c0af 603d 8311 1b3c 004b 39bd
00000080: 94d4 883d a262 ddba e972 20bd c59f c63c
00000090: 831d c1bc 67d3 f83d 65e0 99bc d66a 05be
000000a0: f8fa e33d 9c81 b03d 3d10 d13d 97b1 03bd
000000b0: 9df4 bc3d b82a c03d 2796 503d 6ead b5bc
000000c0: 010f 91ba 9e2c 5c3d 97df 11be ad3a 153d
000000d0: 89c2 a73d 1e4a 113c b9c5 eb3c 5895 bc3c
000000e0: e37c 523d 4a3e 20be da9e 1e3d 8f16 aebd
000000f0: 040b 913c c80f 8fbd 04be 89bd 7a34 bb3d
00000100: 00a2 843d 829a 9e3d dfc2 67bd 42ff e5bd
00000110: 94f3 cc3d 99c5 55bd f1d7 c1bb e668 d9bc
00000120: 3533 ba3c 56aa da3d 657b 923c 2ff0 243d
00000130: 6671 2f3c 93b8 3ebd 44b4 e2bd 6739 923c
00000140: adee 363c 8b32 d3bd a22a 9e3d 69f1 223b
00000150: e897 563d e500 263d a59b c1bd 23ab df3d
00000160: 6ae5 f2bd df23 e2bd b0bd f1bc b9ec f4bd
00000170: 5e2f d03d 6a46 143d f35c aabb 9f60 b6bd
00000180: 716f adbd a5d4 ee3d 50c7 993d 525f 66bd
00000190: 1239 dabd 955f d6bd 1eb4 9ebd ca12 4ebd
000001a0: 2c4d 523d de64 373c 0c25 983d 2f4c cebd
000001b0: ab0a 9f3d a4dd 613d 9fdc 023d 5d09 5bbd
000001c0: 575b 773c 0cac 48bd 80b4 60bd 3ee5 8a3d
000001d0: 2ce3 d9bb 7230 bd3d 6e2e 9a3d 836a 07bc
000001e0: e7ee a33c 1cbe bc3b fc82 f53c ca2c fc3d
000001f0: 6309 3bbc 7f24 783d 76f9 c23d dbdd de3d
00000200: b145 adbc b071 45bd 2ab1 0abd 3c59 493d
00000210: 7aef ca3d 18ff 603b a7d4 91bb 4fea df3d
00000220: e040 43bc a430 043e 9942 12bb 44ce aabd
00000230: 9b74 10bc 5737 81bd e8ea d5bd ca4d e1bd
00000240: 868a 813d b5da 4cbd c0e1 b03d ea9b 6ebd
00000250: c7ff 01be ca28 a3bb 3dfd e53d 9ef7 24bd
00000260: c0da e33d 44f2 363d a3b5 e2bd 63c3 bfbd
00000270: 8115 e63d 2093 05be dc35 d2bd 3e78 eabd
00000280: 2b20 cb3d d1ae 22bd d172 0dbd 34a1 92bd
00000290: 289c f6bd 392c ddbd be47 c73c 39bf cbbd
000002a0: f178 ed3d 4255 a83c 5d75 773d 6632 f43c
000002b0: 14ad 2dbc fc0b eabd 0ae5 ddbd a5bf e53d
000002c0: 8745 b73c c993 823c eb9d 563d f6d7 27bd
000002d0: 3128 c93d 82b0 eabd da79 ebbd 1c30 62bd
000002e0: e74a 683d 86d3 7a3c 1ca9 acbd d542 17bc
000002f0: f17f 1ebd 9175 ca3d 0692 313d fdb2 0e3d
-0.014421518 -0.008805489 -0.025430422 0.047959995 -0.07457421 0.14963108 -0.11553222 0.08283745
0.07310877 0.039826766 0.13337097 0.050795592 0.01259664 0.11190701 -0.12036883 -0.029187325
0.059017073 -0.022439271 0.05118245 -0.036465388 0.09116938 0.041287683 0.017001444 0.056248166
-0.049897265 0.073520206 -0.047965605 -0.094607726 -0.06192799 0.05485511 0.009464624 -0.04523754
0.06681171 -0.0016890357 -0.039172087 0.024246106 -0.023573643 0.12149697 -0.018783757 -0.13029036
0.11131853 0.08618471 0.10208175 -0.032151785 0.09226344 0.09383148 0.050924446 -0.022177424
-0.0011067094 0.053753488 -0.14245449 0.03643291 0.081914015 0.008867769 0.028780805 0.023020431
0.051388633 -0.15648761 0.03872571 -0.085003965 0.017705448 -0.06985432 -0.06725696 0.091408685
0.064762115 0.07744314 -0.056582328 -0.11230327 0.10007396 -0.052190397 -0.005915635 -0.026539277
0.022729496 0.1067702 0.017881105 0.04026812 0.010708189 -0.046562742 -0.11069539 0.017849637
0.011165303 -0.10312375 0.07722975 0.002486313 0.052390963 0.040528197 -0.09453515 0.109213136
-0.118601635 -0.11041998 -0.029509395 -0.11959214 0.101652846 0.036199965 -0.0051990687 -0.08905148
-0.084685214 0.116616525 0.07508719 -0.05624325 -0.106554165 -0.104674496 -0.077491984 -0.050310887
0.051343128 0.011193482 0.07428941 -0.100731246 0.07765707 0.055143014 0.031948682 -0.053475726
0.015097461 -0.0489922 -0.05485964 0.06782006 -0.0066493955 0.09237756 0.07528387 -0.0082651405
0.020011378 0.0057599675 0.029969685 0.1231323 -0.011415812 0.06058168 0.09520237 0.10882159
-0.021151396 -0.048204124 -0.033860363 0.049157366 0.09908958 0.0034331735 -0.004450399 0.10933363
-0.011917323 0.1290918 -0.0022317527 -0.08340123 -0.008816863 -0.06309383 -0.104451954 -0.11001165
0.063252494 -0.050013263 0.086368084 -0.05825416 -0.12695228 -0.0049792277 0.11229942 -0.04027521
0.111257076 0.044664636 -0.11069801 -0.09363439 0.1123457 -0.13044405 -0.10264179 -0.114487156
0.09918245 -0.0397175 -0.034533326 -0.07159653 -0.12041503 -0.107994504 0.024326202 -0.09948582
0.11595333 0.020548467 0.06041466 0.029809188 -0.010600347 -0.11428067 -0.10834701 0.11218194
0.02237202 0.01593961 0.052396696 -0.04097744 0.09822119 -0.114594474 -0.11497851 -0.055221662
0.056712057 0.01530922 -0.084306926 -0.009232243 -0.038696233 0.09885705 0.04335215 0.034838665

transformer.h.0.attn.c_proj.bias f4 [64]
00000000: 3092 69bd 522b 21bd 68c9 e23a c136 983d
00000010: d51b eabd 204a 873c 7bf7 22bd 4cab 5ebd
00000020: fdcc c4bd 7b71 0fbd d5c4 d0bd 5892 cabd
00000030: 47fe 703d 01ca 373d 9658 523c be5b c0bd
00000040: 31fc 563c 24c5 87bd 58c0 8dbd 085b 5dbd
00000050: 0377 313c c51b c03c 981b e73d 7014 b6bd
00000060: 59e9 1c3d 7ec0 37bd 35ea daba 6051 dfbb
00000070: 3b4a a83d b646 7dbd cd2a d3bd 5bb6 8a3d
00000080: 59a3 8f3d 93c8 9f3c 329c 0ebc b5bd 53bc
00000090: 6e10 babb eb91 ac3d cb45 273d 59ef ba3c
000000a0: a6ae 253d 7c41 3ebd 2103 f33d 805c c839
000000b0: 3374 ca3c 38b6 063d 7501 01bd ca7c a23d
000000c0: 0822 c7bd 0a0a e6bd 9af1 9b3d 7c49 c7bb
000000d0: 7fde d0bd 9b37 ecbd dc14 87bc 2896 efbd
000000e0: 68a7 a03d 7938 a93c 6924 843c 3516 9bbc
000000f0: 4386 a03d 7b44 733d aaf9 f2bd 3b0b 063b
-0.05702418 -0.039347954 0.0017302455 0.074323185 -0.1143109 0.016514838 -0.039786797 -0.05436258
-0.09609411 -0.035020333 -0.10193793 -0.09891194 0.058836248 0.04487038 0.012838503 -0.093924984
0.013121651 -0.066293985 -0.06921452 -0.054041892 0.010831597 0.023450742 0.1128456 -0.08890617
0.038308475 -0.04486131 -0.0016701879 -0.0068151206 0.08217283 -0.061835013 -0.10310898 0.06773063
0.07013578 0.01950482 -0.008704232 -0.012923648 -0.005678228 0.08426269 0.040838044 0.022819208
0.04044976 -0.04644917 0.11865831 0.0003821589 0.024713611 0.03288862 -0.03149553 0.07933958
-0.09723288 -0.112323835 0.07614441 -0.006081758 -0.10198688 -0.115340434 -0.016489439 -0.11698562
0.0784443 0.020656811 0.016130643 -0.018931488 0.078381084 0.05939148 -0.11864026 0.0020453471

transformer.h.0.ln_2.weight f4 [64]
00000000: cb19 843f 2b50 843f 7531 823f 231d 853f
00000010: c5e4 843f 9e2b 803f 1395 843f 77e0 853f
00000020: ee22 843f 50c0 813f 9a20 823f c4ad 863f
00000030: 58dd 873f 6894 823f 1d7a 813f 1552 833f
00000040: 4943 823f c7d6 803f 6845 843f c42e 853f
00000050: 9e0e 843f 2fe8 823f c146 853f 2139 863f
00000060: 01bb 813f c503 833f c73b 7e3f 01ca 843f
00000070: 8d08 873f 3a71 823f 5a34 833f f30c 863f
00000080: 3c07 833f 27ea 803f 218b 863f 0d5b 843f
00000090: 9c94 823f 2d3c 813f 7d75 813f 0a4b 843f
000000a0: e6f4 843f 2bcd 843f ed5d 853f f0ca 813f
000000b0: 4c43 893f 6f60 823f c857 843f a25e 803f
000000c0: 09e0 803f af13 843f de98 853f 4448 823f
000000d0: f405 823f 8280 853f 530f 853f d2ab 843f
000000e0: 678d 833f a68a 813f 4392 843f 389e 813f
000000f0: ec1d 843f 37f2 813f be01 843f b2a4 7f3f
1.0320371 1.0336965 1.0171343 1.0399517 1.0382315 1.0013311 1.0357994 1.0459126
1.032316 1.0136814 1.0166199 1.0521779 1.0614424 1.020154 1.0115391 1.0259424
1.0176784 1.0065545 1.0333681 1.0404897 1.0316961 1.0227107 1.0412217 1.0486184
1.0135194 1.0235525 0.99309963 1.0374147 1.0549484 1.0190804 1.0250351 1.0472702
1.0236583 1.0071458 1.0511209 1.0340286 1.0201602 1.0096489 1.011398 1.03354
1.0387237 1.0375112 1.0419289 1.0140057 1.0723662 1.0185679 1.0339289 1.002888
1.006837 1.0318507 1.0437276 1.0178304 1.0158067 1.0429842 1.0395302 1.0364935
1.0277528 1.0120437 1.0357136 1.012641 1.0321631 1.0152043 1.0313032 0.9986068

transformer.h.0.ln_2.bias f4 [64]
00000000: 5c12 723b 38ed 0b3c 4d1e 8aba 7f40 b8bb
00000010: 0c55 563c 257e 273a 6ea2 dbbb c0f4 b8ba
00000020: f5b4 7ebb a1c2 cd3b 7b88 00bc dcf9 4f3c
00000030: 2893 bf3a 1fd3 c63b 01c7 96bb a728 1cbc
00000040: c9d0 e43b dddd 883c 3de8 62ba 13db 8fbb
00000050: cb3a 93bb ba59 453c fc89 5d3c 2ff9 883c
00000060: 349f 68bc f84e a43b 4ed6 613c a95e c8bb
00000070: 4e48 edba d3f9 9dbc a93a c8bc 4db3 d43b
00000080: 6785 a0bb 8a0c 05bc ee43 5bbc 07a3 033c
00000090: e132 51bb 8472 4cbb 2c84 5c3b 8bbd 30bb
000000a0: 38d5 753c 65d2 553b 5ded 423c ae16 84bc
000000b0: 72f5 d9bb d6b7 613b ca45 083c 45cc a4bc
000000c0: b086 103c 9442 b8bb df51 bebb 35a1 953b
000000d0: 2cf8 abbb a44b adbb 0f05 223c 1af2 77bc
000000e0: b086 8e3c e410 1dba 0c80 a53b 21cc 2d3c
000000f0: 7373 0d3b 23c2 9ebc 866f 7fbb e29d 863c
0.0036937213 0.008540444 -0.0010537595 -0.005622923 0.0130818 0.00063893414 -0.0067027127 -0.0014111027
-0.0038865183 0.006279305 -0.0078450395 0.012693848 0.0014616 0.006067648 -0.00460136 -0.009531177
0.006982897 0.016707355 -0.0008655822 -0.0043901294 -0.0044930927 0.012045318 0.013521668 0.016720382
-0.014198113 0.0050142966 0.013784004 -0.0061148 -0.0018103214 -0.019284165 -0.024442034 0.006491101
-0.0048987153 -0.008120665 -0.013382895 0.008034474 -0.0031921195 -0.0031196186 0.0033648117 -0.0026968445
0.015004449 0.0032626626 0.011897412 -0.016124096 -0.006651574 0.003444185 0.00831742 -0.020116935
0.0088211745 -0.005623171 -0.0058080996 0.0045663365 -0.0052480903 -0.005288558 0.009888901 -0.015133405
0.017398208 -0.00059915916 0.005050665 0.01060775 0.0021583706 -0.019379681 -0.0038976385 0.016432706

transformer.h.0.mlp.c_fc.bias f4 [256]
00000000: ac91 b3bd 9051 6a3d 9879 9c3d 971a 9a3d
00000010: d022 843c e8f5 c0bd 9a19 0f3d 9385 0fbd
00000020: a40e db3d 1d5b 933d cf11 df3b 7f29 dcbd
00000030: c387 adbd 2c2d 173d cfc5 96bd b342 2abd
00000040: 123b 4abd c8b0 343b b4d7 abbd 8dbd eabb
00000050: 3ba0 86bd 20ea 5ebd 0aef 8c3d 386d 47bc
00000060: 93d9 86bd a3c6 873d 4c26 d23d 3b13 be3d
00000070: 2f9e 6d3d 1617 013e 59d7 313d 0eac 1dbd
00000080: a994 d13d a1ce cbbc d980 47bd 2496 82bd
00000090: f4f6 0abd 6dac 56bd e8bb 2abd ce76 443d
000000a0: 6fed a23c 9265 66bd 5e8e d6bd 81c3 703c
000000b0: bf9e 30bd 322f 983d 39d4 cdbd fdb6 edbc
000000c0: bf7c 823d 075a df3c efac 01be 496b a13d
000000d0: 2314 07bd 1457 e6bd eba3 e03d 6325 e2bd
000000e0: 0dac 513d ee84 56bd 6135 253d 2a66 bebd
000000f0: 9144 d33d 5f93 e43d 3488 4e3c fc62 4e3d
00000100: fff5 cf3d 441f 253c 0911 f13d 35ee 6abd
00000110: f073 873c 8c08 793d 6c4c 553d cc1c 293b
00000120: 052c 343d bb56 f5bc 21a6 ebbc 7872 da3d
00000130: fdf9 c33d 59f1 483d e650 90bd 70ab 033e
00000140: 2142 57bd 3173 a0bd a867 be3d 2df3 c23d
00000150: bd77 833d 7d8d a23c 0c9d f3bd 605d 1ebd
00000160: a117 c83d d0fc c4bd 2b13 bebd fd2f c73d
00000170: 41f8 593d 3d60 52bd 76d7 abbd 236c 84bd
00000180: ef5a 1fbc 5048 313d a491 983d 3a9c d5bd
00000190: fa25 21bd 81ec d0bd 39d0 e7bd 154b 8f3d
000001a0: 6868 6fbd c181 81bd a486 2fbd d8e6 043e
000001b0: bbd3 21bc 2777 8a3c 1566 44bd 134b 8b3d
000001c0: 0cf3 cabd 46e4 743d 9228 013e b7c2 e0bc
000001d0: 2b43 3bbd cda9 063d cc18 64bc a325 5a3c
000001e0: 7309 aabd 2d58 bfbd 763b e6bd dfd6 cdbd
000001f0: fee2 5fbc 7c32 2c3d 52e6 ab3d ac4c 553c
00000200: 9fec 263d fda1 5b3d fe06 ce3d f372 f33d
00000210: c728 d73b 9f26 c5bd 7f93 213d 0c8d 883d
00000220: b271 893d 1974 ad3d 3884 5a38 22a4 85bd
00000230: 5d5d c63c 94df ca3c 1bb3 e03d e52c 553d
00000240: 554f ba3d 10a9 d23d 5227 7b3b 1f24 87bd
00000250: b660 d2bd bbd2 dd3d abf9 babd a2f7 253d
00000260: 86e4 b23d 1d13 e83d 5b78 52bb f4ae 803d
00000270: 580b 08bd 0154 6a3d f612 79bd 4e8d a53d
00000280: 5182 f23c cbb2 2abd f8e5 b13d 61af 6f3d
00000290: ef40 dd3d 15f1 b53d cc41 d43d d223 19bd
000002a0: 0c0a 853d 5dc9 d4bb 11dd c7bd 5f45 c63d
000002b0: ea2b 79bd 781d 2f3d 4e44 053e 82de ba3c
000002c0: f54f eabd f2d2 a6bd 3bc0 9b3d fa3b 83bc
000002d0: f61d 92bc 5cbc 3c3d 48c7 b4bd 5e4d a53c
000002e0: 90b7 1e3b fe75 35bd 0a13 be3c f5bb f1bc
000002f0: 4a0e 8d3d 7fb7 d7bb c8f5 e33d d21c ee38
00000300: d2db 5bbd ea6c c4bd cdbc a83c 56ff 033b
00000310: 6fe2 d2bc 4805 7f3c d69a 453d 4da6 b13d
00000320: e41f cabc 031f 543d b9ca 333c a00b a0bd
00000330: 81db 0c3e 689a 3c3d 1a00 c23d 90aa 963c
00000340: 364f d9bd af72 8f3d 3197 773d 93e5 b03d
00000350: e617 fd3d 63d6 a93d aaee f8bd b369 cfbd
00000360: 0e89 b53d 8243 d23d 6a01 203d 1bdb c4ba
00000370: 88e0 a5bd 8a60 11bd 6aa4 90bd 280b e23d
00000380: c176 dbbd 215d 92bd 3393 84bd 9229 b5bd
00000390: 2096 00bd 938c c93c 6b65 4ebd 16b0 213d
000003a0: 5813 dabd 0f19 ebbc 1eec ad3d d79f 9bbd
000003b0: 5171 d2bd 560c dbbd cde1 15bd 9643 9cbd
000003c0: 684a 7c3d 11ba 573c b615 1e3d bda3 e23d
000003d0: 9f28 863c c5dc e73d f54d 083e ff07 6fbd
000003e0: b3e0 bbbc e593 a8bd f359 72bd d391 003e
000003f0: 3028 5a3c c0d6 923d 432a 92bd 76e7 763b
-0.08768019 0.05720669 0.0764038 0.07524603 0.016129881 -0.09421903 0.034936525 -0.035039496
0.10696152 0.07195113 0.006807543 -0.10750102 -0.0847316 0.036908314 -0.07361948 -0.041567516
-0.04937274 0.002757119 -0.083907515 -0.0071637095 -0.0657353 -0.054422498 0.068815306 -0.012172036
-0.06584468 0.06629684 0.10261211 0.09281012 0.058012184 0.12606463 0.043418262 -0.038494162
0.10233433 -0.024878802 -0.048706863 -0.06376293 -0.03392692 -0.05241053 -0.041683108 0.047964863
0.019888608 -0.05624921 -0.10476373 0.014695049 -0.043120142 0.07430877 -0.10050244 -0.02901792
0.0637145 0.027264608 -0.12663625 0.07881791 -0.03297819 -0.112470776 0.10968765 -0.11042287
0.05118947 -0.052372865 0.04033411 -0.0929683 0.103158124 0.11160921 0.012605716 0.050387368
0.10154342 0.010078255 0.11770827 -0.05735608 0.016534775 0.060799167 0.052074835 0.0025804518
0.043987293 -0.029948583 -0.02876574 0.106663644 0.09569166 0.049058292 -0.0704668 0.12858367
-0.0525533 -0.07834471 0.092971146 0.09519038 0.06419323 0.019842857 -0.11895189 -0.038663268
0.09770132 -0.09618533 -0.09281 0.0972595 0.05321527 -0.05136131 -0.08390705 -0.06465938
-0.00972627 0.043281853 0.07449654 -0.104301885 -0.039342858 -0.102013595 -0.11319012 0.06996743
-0.05844918 -0.06323577 -0.042853013 0.12978685 -0.009877141 0.01690252 -0.047948916 0.06801429
-0.09909639 0.05978801 0.12613133 -0.027436597 -0.045718353 0.03287678 -0.013921928 0.013314637
-0.083025835 -0.0934299 -0.1124181 -0.10050749 -0.013664959 0.042040333 0.083935395 0.013018768
0.040753003 0.05362128 0.100599274 0.11887159 0.0065661403 -0.09626507 0.039447304 0.066675276
0.06711139 0.084694095 5.209839e-05 -0.065254465 0.024214441 0.024764813 0.10971662 0.052044768
0.09097163 0.10286152 0.0038322997 -0.065986864 -0.102723524 0.10831209 -0.09129652 0.040519364
0.08734994 0.113317706 -0.0032115194 0.0628337 -0.033213943 0.05720902 -0.0608091 0.08083592
0.029603155 -0.041674417 0.08686441 0.058516864 0.10803401 0.088838734 0.10364112 -0.037387677
0.06496057 -0.006493731 -0.09758962 0.096812 -0.060832895 0.042752713 0.13014337 0.022811178
-0.11441032 -0.081457034 0.076050244 -0.01601981 -0.017836552 0.04607807 -0.088270724 0.020178493
0.0024218298 -0.04430198 0.023202438 -0.02950857 0.06887491 -0.0065831537 0.111308634 0.000113540926
-0.053676434 -0.09591086 0.02059784 0.0020141206 -0.025742738 0.015565224 0.048243366 0.086742975
-0.02467341 0.051787388 0.010973626 -0.07814717 0.13755609 0.04604569 0.094726756 0.018391877
-0.106108114 0.07004296 0.06044692 0.08637538 0.12358074 0.08292844 -0.121548966 -0.101275824
0.08864032 0.10266782 0.03906385 -0.0015018912 -0.080994666 -0.035492457 -0.070626095 0.11037284
-0.1071601 -0.07146669 -0.064733885 -0.088458195 -0.03139317 0.024603164 -0.05038969 0.03947457
-0.10648221 -0.028698472 0.084923014 -0.075988464 -0.1027552 -0.10695712 -0.036592294 -0.076300785
0.061594397 0.01316692 0.038594924 0.11066387 0.016376792 0.11321405 0.13310988 -0.058357235
-0.022934293 -0.08231334 -0.059167814 0.12555628 0.0133152455 0.071698666 -0.07136967 0.0037674583

transformer.h.0.mlp.c_proj.bias f4 [64]
00000000: bd19 e13c 5b30 853d 1308 2e3d a5a9 02bd
00000010: 8040 5ebc 43f1 1e3d cb17 44bc 5ad1 623a
00000020: c154 b23c 7ebe eabc 5804 6abd d036 803d
00000030: e066 ecbc 4d3a 35bd 7084 993c 9365 84bc
00000040: 0691 483d 28a5 2e3d 4caf a83c b142 e13c
00000050: 4273 e93c 3ce3 ecbc 1fee 9cbc 1115 acbc
00000060: a142 02bc b4e5 f2bc 91c9 ea3b 65fc 0e3d
00000070: cf71 d43c 9329 b23c c18a 19bd a90d e0bb
00000080: 526b 50bd ae0d 213d b09c 4ebd 4eec 653d
00000090: b588 a13c 2a8a e43b 12dc 14bd d89a 613c
000000a0: c6bb 283c 1cf6 3f3d 4bf0 543a ac1f d8bc
000000b0: 052d d5bc 44ce 253b a033 403d 6670 41bc
000000c0: 35c6 1c3d 4827 9bbc 4a8f 7bbd 3084 abbb
000000d0: 9f3e 11bc 407a 6e3d 8d94 25bd 8a61 233d
000000e0: 6998 713d b6d8 3d3d 830b 88bb e6d9 1abd
000000f0: 18f2 e73c e700 2c3b 5270 cebc 7aa8 a2bc
0.027478093 0.06503364 0.04248817 -0.031900067 -0.013565183 0.038804304 -0.011968563 0.00086524116
0.02176893 -0.028655287 -0.05713305 0.06260455 -0.028857648 -0.044245053 0.018739909 -0.016161716
0.04896643 0.042637974 0.0205914 0.027497621 0.028497342 -0.028916948 -0.019156514 -0.021006139
-0.007950456 -0.029650547 0.007165142 0.03490867 0.025933174 0.02174834 -0.03748584 -0.006837566
-0.0508836 0.039319687 -0.050442398 0.05613356 0.019718507 0.0069744783 -0.036342688 0.013769828
0.010298675 0.046865568 0.00081229646 -0.02638229 -0.026022444 0.0025299946 0.046924233 -0.011806583
0.038274962 -0.01893963 -0.061415948 -0.005234264 -0.008865028 0.058222055 -0.040424872 0.039887942
0.05898324 0.04634925 -0.004151763 -0.03780546 0.028313681 0.0026245655 -0.025200043 -0.019855727

transformer.h.1.ln_1.weight f4 [64]
00000000: aa2a 883f 8065 853f 0916 883f b95b 8a3f
00000010: d68b 8b3f 1bbd 883f 2e73 853f 8e59 893f
00000020: 4350 893f cf1b 853f 2867 823f 2acd 8c3f
00000030: 946c 883f c908 883f a626 863f ded5 853f
00000040: b25c 883f e3a2 853f 2e3c 893f eade 853f
00000050: b8da 863f 49d5 893f 9152 8c3f 5be7 853f
00000060: 55a2 8c3f 29df 853f d1c5 803f 3cfe 863f
00000070: 2099 883f c5c4 803f b2b2 833f a16d 893f
00000080: 7389 873f 8f54 883f c671 873f a0bd 843f
00000090: 9b96 853f b57c 843f 7dbb 863f db4e 833f
000000a0: f29a 8b3f 18c9 813f 103c 883f 6702 863f
000000b0: 7f71 8b3f 480f 8c3f 2efc 863f b416 8a3f
000000c0: ea4c 873f 58fe 883f 61be 883f 704b 863f
000000d0: 2d78 853f 20f5 853f b190 893f f464 893f
000000e0: 664b 883f 11a7 893f 3641 853f f393 883f
000000f0: 9ae4 873f b005 883f aa05 863f c3d7 833f
1.063802 1.04216 1.0631725 1.0809242 1.090205 1.068271 1.0425775 1.0730455
1.0727619 1.0399112 1.0187731 1.1000111 1.0658135 1.0627681 1.0480545 1.0455892
1.0653288 1.0440334 1.072149 1.0458653 1.0535498 1.0768214 1.0962697 1.0461229
1.098704 1.0458728 1.0060369 1.0546336 1.067173 1.0060049 1.0288908 1.0736581
1.0588821 1.0650805 1.0581596 1.0370369 1.0436586 1.0350558 1.0525967 1.025844
1.090666 1.0139494 1.064333 1.0469483 1.0894011 1.0942163 1.0545709 1.0788178
1.0570347 1.070262 1.0683099 1.0491772 1.04273 1.0465431 1.0747281 1.0733933
1.064801 1.075411 1.0410526 1.067015 1.0616639 1.0626736 1.0470479 1.030022

transformer.h.1.ln_1.bias f4 [64]
00000000: 6a82 313c 6f06 763c 371b 79bc bd61 dc3b
00000010: 6245 843c 00f0 5a3c 5fdf 2abc 58d6 f9b8
00000020: 9470 e0ba 653f 03bc 73e6 a4ba 558e e23b
00000030: 43ae 2cbc 930e cdbb 2540 09bc a62e abb9
00000040: 3b93 febb 0bd4 dabb 217b 7cbb 6e67 da3a
00000050: 54fe fe3c 63b1 d33b b8eb c8bb 242d 383c
00000060: c517 713c 0cb5 24bc 6c3f 38bb c143 e1ba
00000070: 23c1 36bb b8cd 78bc 65e0 e53b 5ff5 0e3c
00000080: f3e7 923b 4651 8bba ef06 0a3c 34a6 7ebc
00000090: 1817 8a3c 0b46 8bbc b351 d3bc 69c5 19bc
000000a0: e64a 64bc bc21 bfbb 24af eb3b 90fc b0bb
000000b0: 4d7f 10bc 2283 c6bb 15c8 26bc 33d2 693c
000000c0: 0be1 203c 8495 723c 766b cdbc 0b2f 773b
000000d0: 70a8 093c 5300 253c 33ab 683c c3b4 c2b9
000000e0: d820 aabc c6e2 743c 4133 2fbc 3997 b7bb
000000f0: c6b7 57ba 75c4 2cbb 7809 f33b ecaf 893b
0.010834316 0.015016182 -0.015204242 0.0067255185 0.016146366 0.0133628845 -0.010429232 -0.0001191317
-0.0017123395 -0.00801072 -0.0012580886 0.00691394 -0.010539594 -0.006257841 -0.00837711 -0.00032650417
-0.007769016 -0.0066781095 -0.003852554 0.0016662905 0.031127132 0.006460355 -0.0061316155 0.011241231
0.01471514 -0.010052931 -0.0028113974 -0.001718633 -0.0027886115 -0.015185766 0.0070152753 0.008725493
0.004483217 -0.001062908 0.008424505 -0.015542556 0.016856715 -0.017001173 -0.025795793 -0.009385445
-0.013933873 -0.005832879 0.0071925092 -0.0054012015 -0.008819413 -0.0060581127 -0.010179539 0.014271307
0.009819279 0.014806155 -0.025075655 0.0037717249 0.008401975 0.010070878 0.014200973 -0.0003713724
-0.020767614 0.014946645 -0.010693372 -0.005602744 -0.00082289835 -0.0026362215 0.0074169002 0.0042018797

transformer.h.1.attn.c_attn.bias f4 [192]
00000000: 9c34 f7bc 07e5 aebd fa54 2bbe a2f5 f0bd
00000010: 504e 7cbd 3fab e13d cfdd 4939 e6f7 30bc
00000020: 27bf fcbc ac1a 5ebd cbb1 30bd ff22 973c
00000030: d125 5abd 3f17 9abd 3cc7 90bd ee3b 89bc
00000040: 67df c63d 2465 283d 2720 983d 44e5 243e
00000050: 80d2 05bd 4228 97bd 5a14 803c 7992 e33d
00000060: 8d72 133d 6aae 4abd f296 07be cea8 53bd
00000070: 8210 c6bd 4547 b13c 5c68 ad3d b27c 693c
00000080: 3579 843d 5c1d 31bb 8ca4 29be a476 b5bd
00000090: 74b2 ff3d a867 3b3d 7252 2a3d acd2 a93d
000000a0: 6532 cb3c 5d35 c9bd 13dd 103e ca6d de3d
000000b0: 2d12 d2bd e951 52bd a2bf 6a3d 6da7 ae3d
000000c0: a22e cb3d 230e 523d c0ac 0cbe dd3f 403e
000000d0: 91da 713c 0e91 ddbd 87f9 bdbd c37f e8bd
000000e0: 5548 29bd 3322 a8bc 0597 a53d f240 34be
000000f0: bf71 17be f15e 4d3e 1ba8 e5bd 2e07 643b
00000100: 8690 b93d 6c47 f2bd ed3b 5fbc 2fcb 76bd
00000110: 4071 1fbd ac06 20bc 823f bebd 79c3 ea3d
00000120: d257 bdbd 0d0e 013b 4369 d73c 9f5a e7bd
00000130: 2f8b a8bd d1c9 f83d 5c01 993d 5016 e93d
00000140: c2ea bf3c 770c 8a3c 9889 d43c dccf b2bd
00000150: 3468 313d 3fa9 bb3d c9c8 9dbd f4d2 993d
00000160: 2492 973d 97db ddbd fae1 e73c 231c a23d
00000170: ec5e c43d 57ed aabd dc8d 3a3d 3c01 603d
00000180: 19dd d6bd bc4d 36bd b3e8 e0bd 4117 ed3d
00000190: f4b2 b23b a770 dabd eee8 18bc 286b 84bd
000001a0: 7396 2fbd 34a2 853d 729b c4bd d3c9 9e3d
000001b0: c475 923d 89bc 9a3b 6b9c d13d 53e6 c7bd
000001c0: 3c59 963d 8efb 7b3d 1227 54bd 9c1f d43d
000001d0: 5d07 9d3d 0b63 3e3d 8e6a 003d e86e da3c
000001e0: 85bd dbbd 24dc 15bd 3b52 a73d 58d3 d93d
000001f0: 9e39 93bc bd7a abbd cb92 283d 3160 c7bd
00000200: 4f1a 213d 2443 f1bd 73dc ddbd ac1f b13b
00000210: e1a9 c0bc 823d 22bd 9728 6abd 95f9 9ebd
00000220: ff4c 60bc c685 f83d b5d3 52bb c2d1 64bb
00000230: a8ff 873d 7514 953d dcac bebd 4746 d83d
00000240: 7a57 e33d 9a86 93bd 4b5f 113d 2454 3cbd
00000250: fbc6 4b3d 806e 8abd 346a b2bd d765 cc3d
00000260: c09f a7bd 7124 f33d 6299 13bd f54b cebd
00000270: cfb2 813d 449a 91bd 3cee 1bbc 1002 f0bd
00000280: 228d 7fbd 9637 18bd f1c5 babc f0d3 583d
00000290: 5f8a 38bc c1c3 953d 4edf 7bbd 3619 b63d
000002a0: 687f ed3c 24e1 ce3c ce5f 4a3d 6ace dbbd
000002b0: 5d4d edbd 84fb 573d 1c5c aa3d 0546 683d
000002c0: 1f7b 213d 340e 893b 60fd d4bd dae3 ba3b
000002d0: f8e9 f2bc 020a debd dbb5 643d 096e 88bd
000002e0: 75ea 0f3d ba42 86bd 8220 6f3d 3c78 0d3c
000002f0: 5a99 c83d 1017 163c 89d5 d8bb 12cd ae3d
-0.030176453 -0.08539777 -0.16731635 -0.11765601 -0.061598122 0.11018991 0.00019251484 -0.010801291
-0.030852867 -0.054224655 -0.043138307 0.018449305 -0.05325872 -0.07523965 -0.07069251 -0.01675221
0.09710579 0.04111208 0.074280076 0.16103083 -0.03267145 -0.073807254 0.015634704 0.11111922
0.035997916 -0.04948274 -0.13241175 -0.051674657 -0.09671117 0.02164043 0.084671706 0.014250921
0.06468431 -0.0027025556 -0.16566676 -0.088605195 0.12485209 0.04575315 0.041582532 0.082921356
0.024804303 -0.09824631 0.14146833 0.10860784 -0.10257373 -0.051347647 0.05731166 0.08528028
0.09921004 0.051283013 -0.13737774 0.18774362 0.014761583 -0.108186826 -0.09276109 -0.113524936
-0.041328747 -0.02052412 0.08085445 -0.176029 -0.14789484 0.20055749 -0.11213704 0.0034794318
0.09060769 -0.11830029 -0.013625127 -0.060252365 -0.038926363 -0.009767216 -0.09289457 0.11463065
-0.09245266 0.0019692213 0.02629531 -0.112965815 -0.08229672 0.121478684 0.074709624 0.11381209
0.023427371 0.016851647 0.025944516 -0.08731052 0.043312266 0.091631405 -0.07704312 0.07510939
0.07400921 -0.10832899 0.028305996 0.07915523 0.095884174 -0.0834605 0.045545444 0.054688677
-0.1049139 -0.044507727 -0.10981884 0.11576701 0.005453462 -0.10666018 -0.0093328785 -0.06465751
-0.04286809 0.065250784 -0.09599961 0.07753339 0.07151368 0.004722182 0.102349125 -0.09760728
0.07341239 0.061519198 -0.051795073 0.103575915 0.0766742 0.046481173 0.03135162 0.026664212
-0.10729507 -0.036586896 0.08169981 0.10636014 -0.01797181 -0.0837302 0.041155618 -0.09735144
0.03933173 -0.11780384 -0.10833063 0.005405387 -0.023518505 -0.03960944 -0.057167616 -0.07762448
-0.013690232 0.1213489 -0.0032169644 -0.0034915064 0.066405594 0.072792925 -0.09310314 0.10560279
0.11100669 -0.072034076 0.03549127 -0.04597868 0.04975031 -0.067593575 -0.08711663 0.09980362
-0.08184767 0.11872185 -0.03603495 -0.100730814 0.06332933 -0.07109502 -0.009517249 -0.117191434
-0.062390454 -0.037162386 -0.022799464 0.052936494 -0.011263459 0.07312728 -0.061492257 0.08891527
0.028991416 0.02525384 0.049407773 -0.1073273 -0.115870215 0.0527301 0.0831835 0.0567074
0.039424058 0.0041826013 -0.1039989 0.0057034316 -0.02965258 -0.108417526 0.055837493 -0.066616125
0.035135705 -0.06555696 0.05838061 0.008634623 0.097948745 0.009160772 -0.0066172522 0.08535208

transformer.h.1.attn.c_proj.bias f4 [64]
00000000: b6c4 b7bd fe92 c13d 3a67 a03d 39ed 81bd
00000010: 2904 af3c e0ae a6bd 4fc8 853d b1ae 083c
00000020: 9eec eebc 8b1e 3d3d e7bc 16bd 30d1 68bd
00000030: ffb2 a0bd 4398 8ebd 9b3e 3a3d 5f2f d63c
00000040: c5d0 113d 3728 9abc 92e2 44bd ec0e c3bd
00000050: e026 26bd be2b f53d 9ae2 8c3d fe29 d0bd
00000060: 3e5c b8bd 40be b03d 5a83 f33d 3b49 7e3c
00000070: 11ec 2b3d 5bc7 d2bd 8253 233c 9a09 c0bc
00000080: 4d83 d83d 00c5 af3c 3700 7eba 65bf 4bbd
00000090: 954e b13d 9447 db3d 1dfa ae3d d55c 3c3d
000000a0: 5662 153d fda4 543d 64e8 df3d 6982 273d
000000b0: 03f9 44bd e273 16bd d8cf 86bd bd90 5bbd
000000c0: 1037 3ebd 1f07 15bd de8f 1d3d a0e0 d8bc
000000d0: bda4 c03d 5b59 d8bc 787a 133d 58a0 f8bd
000000e0: 1682 113d afe2 ab3d 534b f63d abc3 c83d
000000f0: dcf5 983d ffae b13d d1fd c8bc 1071 bd3c
-0.089730665 0.09451865 0.07832189 -0.06344075 0.021364288 -0.081388235 0.065323465 0.008342431
-0.029165562 0.046171706 -0.036801245 -0.05684012 -0.07846641 -0.06962635 0.04546986 0.026145635
0.03559949 -0.018818004 -0.048067637 -0.095243305 -0.040564418 0.11971234 0.06879158 -0.101642594
-0.09001969 0.08630037 0.11890288 0.015520389 0.041973177 -0.1029193 0.00996864 -0.023442078
0.10571919 0.021456242 -0.0009689363 -0.049743075 0.086575665 0.10707012 0.08543799 0.04598697
0.036470734 0.051915158 0.10932997 0.040895853 -0.04808904 -0.03673161 -0.06582612 -0.05360483
-0.04643923 -0.036383744 0.03846728 -0.026474297 0.09406421 -0.026409796 0.036005467 -0.12139958
0.03552445 0.08392846 0.12026086 0.09802946 0.07468769 0.08675956 -0.024535092 0.023125201

transformer.h.1.ln_2.weight f4 [64]
00000000: 3245 883f 17e4 833f 7104 853f bc6d 873f
00000010: 49ea 853f f259 883f 3888 843f 16f8 873f
00000020: 4b38 863f 8a74 813f 745d 813f d4a7 853f
00000030: 5bda 843f 24c1 843f dc75 863f f970 843f
00000040: c7f6 813f 5e64 813f 01a3 823f 16a7 853f
00000050: 0846 863f 3420 843f 1000 843f 71df 863f
00000060: 622e 843f 36b8 833f fc97 853f 5918 833f
00000070: 0fd6 843f 5ec7 853f f9f5 863f ae5a 853f
00000080: 8a57 833f e2d4 823f e807 893f f865 843f
00000090: 1c20 863f 391e 823f 1447 833f d26d 853f
000000a0: 189a 833f 02ff 833f 9705 863f 3d10 873f
000000b0: b538 893f 9a7d 813f 6306 843f 962c 833f
000000c0: 7586 843f cfe6 853f 900a 873f 5eef 843f
000000d0: 3a05 843f 34e9 853f db07 863f 35ae 853f
000000e0: 60d9 813f 7056 833f 5679 833f 0bda 823f
000000f0: 4182 853f 0a73 873f 072f 843f 0cb5 813f
1.0646117 1.0303982 1.039198 1.0580363 1.0462123 1.0652449 1.0354071 1.0622585
1.0485929 1.011369 1.0106645 1.0441842 1.0379137 1.0371442 1.0504718 1.0346977
1.0153435 1.0108755 1.0205995 1.0441616 1.0490122 1.0322328 1.0312519 1.0536939
1.0326655 1.0290592 1.0437007 1.0241805 1.0377825 1.0451467 1.0543815 1.0418298
1.026109 1.0221217 1.0705538 1.0343618 1.0478549 1.0165473 1.0256066 1.042414
1.0281401 1.0312197 1.0470456 1.055183 1.0720431 1.0116456 1.0314449 1.0247982
1.0353533 1.0461062 1.0550098 1.0385549 1.0314095 1.0461793 1.0471147 1.0443789
1.0144463 1.0260754 1.0271404 1.0222791 1.0430375 1.0581982 1.0326852 1.0133376

transformer.h.1.ln_2.bias f4 [64]
00000000: 096b 563b adad c13a af01 7ebb b657 113b
00000010: f72e b9ba 4df8 7b3a 9fff e03a 98e1 17bc
00000020: fddc b6bb a188 01ba 8eb4 403b 0b2c 413c
00000030: d778 5c3a ed6f 4bbc b7c3 8e3c 9ac9 1b3b
00000040: a8d9 c73c 57a4 9c3b 43ef b83c c3ef 133c
00000050: 1cf6 33bc 981c 9c3c b6a8 a43b 04fb fd3b
00000060: 7d28 84bc 15dc e73b e632 753b 6506 893b
00000070: a2d2 c9b8 08d8 5abb 1658 8fbc c9ad 113c
00000080: 417e b53a a821 9cba 0eca 61bc aaea b9bb
00000090: ed52 e8bc 13d6 863b d101 4b3b 1ef0 c6bb
000000a0: 6708 a23c ca01 fa3a ea23 19bc ae5d cdbb
000000b0: 5f80 983c 5ba7 543c f15f 513b 385b a93b
000000c0: 1c2b cb38 c299 113b 7203 b0bb f2cc 9b3b
000000d0: e697 8dbb 3a1d 91bb d158 37bb 70e8 d3bb
000000e0: ca1f f23b 5bcc abbb 9d6d ccbb c345 e53a
000000f0: 556d 0b3c 2025 e73a ba2c 3dbc 444f 133c
0.0032717607 0.0014776491 -0.0038758328 0.0022177524 -0.0014128376 0.000961189 0.0017166025 -0.009270094
-0.005580543 -0.0004941319 0.0029404494 0.011790286 0.00084103405 -0.012416822 0.017427308 0.0023771287
0.024395779 0.004780333 0.022575026 0.009029332 -0.01098397 0.019056603 0.0050249947 0.0077508707
-0.016132588 0.0070757964 0.003741437 0.0041816705 -9.62366e-05 -0.0033392925 -0.017498057 0.008891531
0.0013846831 -0.0011911886 -0.013781084 -0.005673726 -0.028359855 0.004114875 0.0030976424 -0.0060711047
0.019779397 0.001907402 -0.0093469415 -0.006267271 0.0186159 0.012979354 0.0031948055 0.005168345
9.687824e-05 0.002221689 -0.0053715045 0.004754656 -0.004321086 -0.004428533 -0.0027976523 -0.0064669177
0.0073890435 -0.005242867 -0.006238653 0.0017492104 0.0085099535 0.0017634965 -0.011546308 0.008991066
