model/rnn.onnx (onnx, 92233 bytes, 6 tensors)

start f4 [1, 64]
00000000: ebe3 5c3d ce29 6dbd bbd6 9c3b b000 a5bc
00000010: f711 84bc c824 e03c 172f 43bd ebc3 cc3b
00000020: 088a 88bc 71df 863d c0d4 aabb 5241 8f3c
00000030: 6600 16bd bac8 863c 7a16 49bd e90a 433d
00000040: 57c4 adbd e388 373d babf bd3d 3d63 543c
00000050: ca39 edbb 949c 343d c8b3 373d f2f0 3bbd
00000060: 1b2e 6b3d c3de 39bd 3f7a b7bc 09a5 1b3d
00000070: 5d68 47bd cfc2 583d 15da ad3a a19f 5dbd
00000080: 0ebd 0fbc 14a9 953b 7277 8abc 7146 a2bd
00000090: 4f6d f93c aad7 a63d 0634 4b3d 8cba 7fbd
000000a0: e5ef f7bc ac09 3bbd b40f c8bd 25d9 08bd
000000b0: 8058 9cbd 42fa 9c3c 91df c63c 1a95 4f3b
000000c0: d7bb 23bd 6089 c9bc 9b44 b23c 38cf 363d
000000d0: d652 6e3d 1626 62bd 5dad 0b3d 4589 20bd
000000e0: 6065 51bd d709 dfba a4b3 70bc c0f7 b8bd
000000f0: 91d3 5b3d e5bd 6dbd 533c a73c 3a46 6bbd
0.053928297 -0.057901196 0.00478634 -0.02014193 -0.016121848 0.027361289 -0.04765233 0.006248941
-0.01666738 0.06585587 -0.00521335 0.017487202 -0.036621474 0.016453136 -0.0490937 0.047617827
-0.084847145 0.04480828 0.092650846 0.012963113 -0.007239555 0.044094637 0.044849187 -0.04588408
0.057417016 -0.045378458 -0.022397159 0.037999187 -0.048683513 0.05292016 0.0013263846 -0.054107312
-0.0087731015 0.004567275 -0.01690266 -0.07923592 0.03044763 0.081466034 0.04961016 -0.062433764
-0.030265758 -0.04566352 -0.0976862 -0.03341021 -0.076340675 0.019162301 0.024276527 0.0031674565
-0.03997406 -0.024601638 0.02176123 0.044631213 0.058184467 -0.055212103 0.03410088 -0.03919341
-0.05112207 -0.0017016482 -0.014691267 -0.090316296 0.053668562 -0.058042426 0.020414507 -0.05744002

wte.weight f4 [39, 64]
00000000: dab6 53be 67b4 833e 3d92 26be d5af 4fbf
00000010: 0fd1 4bbf b29b c43f cb3c 863f 9cbc 9abf
00000020: 4063 3fbf 130f b4bf 5663 183f abd2 33bf
00000030: 65ff c2bf 4136 ec3d 4a57 d73f 8dcf e2bf
00000040: 002d ae3f 9e89 b43e acfb 59bf d244 25bf
00000050: abf7 703f ee63 26bf 7e66 173e f4de 1bc0
00000060: eba8 633e 0bf7 cc3d d10e b9be c06a 373f
00000070: 1567 9f3f ceb0 273e f4b1 1340 4b58 bdbe
00000080: a6c5 cb3e 4b3f a13f 231a 953f a9b8 bdbf
00000090: 2170 383f 4dc3 28be 66a3 583f b36a 973f
000000a0: 92a2 bc3d 1974 4dbe b5f4 f5bf b0e0 be3e
000000b0: c6d5 18bf 5c16 e73f c1b9 0140 0f1b d6bf
000000c0: 2b37 8e3f 6758 f73e 5014 04bc c083 b23e
000000d0: c3a4 a7be 0ade 323f 513a 40be 5d3d 863f
000000e0: a1b1 c9be a4f1 45bf ef6b 20bf f7cf 4abf
000000f0: efda 56bf 73d5 26be ef79 513f d152 58bf
00000100: 23a6 ccbf 3ce1 543f c866 eabf d56c 6dbf
00000110: 1fb5 33bd 85fd 6b3e 7e02 6b3f 0830 4a3e
00000120: 34c2 0740 3a0d 553f 1eda 1ebf 0810 7fbf
00000130: 1f39 ab3e 70b7 9d3f 3a0a 9dbe c33d fcbd
00000140: a0dd adbe da11 d8bf 47e1 0640 18ee e5be
00000150: 992c 4cbe 53e5 a2be a40d 4c3d 11e4 70bf
00000160: 8548 c73f 4d2b e7bf c0bf 0cbf 7cf4 b23f
00000170: 643b 5b3f d7f1 c4bf 91d2 973e 1550 64bf
00000180: 6f80 16bf f779 d73e 297c 9c3f cf3e 8fbf
00000190: 3679 923e 8911 f1be b0a8 f43e 5aea b4be
000001a0: 7e25 93bf 02ea d33e 7eaf 3cbf fddd 50bf
000001b0: 8d3a 58c0 1f24 0340 7627 a3be 64cb 55bf
000001c0: 78c1 163f 5b4f 993f e458 35bf bf49 c0bd
000001d0: dac8 b1be 7ead 08bd 2e32 59bf 5e01 273f
000001e0: 4d36 8a3e 0206 193f 89d4 09bf a60e 003f
000001f0: f2ff de3f 527e ec3e 1d3e 20bf 2e1c 1cbf
00000200: c5a5 2f3e c06f 383e 73da a03f e1d1 8d3d
00000210: b0f3 da3f 34ff cb3e d7a2 c83e a499 953f
00000220: 3a43 513f 8bee 223f c350 42bf c549 28bf
00000230: 803c ec3e 06fe 8d3f 504d 90bf 3e6b e93d
00000240: d93a 1140 ff2b 88bf 21b3 d3bf 4b45 93bf
00000250: dcdb 82bf 0de2 083e 0e89 f23d 4afa 6f3f
00000260: 79da 81bf 7ee3 c23d e948 b1bf 61e3 c03f
00000270: d273 563f 45a6 a23f a1fb 9cbc 7bef dcbf
00000280: 55f6 e8bf 9e9d 2b3f 95b7 093f db12 5ebe
00000290: 3f67 bf3f a9f1 8ebf f22c c13c b3ba cc3f
000002a0: 17ad 0cbe d737 c53e a4ef 70bf fb04 1240
000002b0: db34 8c3d eb9f 87bf f77b 443f d2c3 af3f
000002c0: 49cf a1bd dbcb 0dbe a489 443f 4c44 f7bd
000002d0: 9ec7 09c0 d348 253f 1436 203f eddf b0be
000002e0: f288 1e3f 04ea 30bf 3078 07bf e345 903f
000002f0: e0d5 493e c9fb 3ebe deab c8bf 164a bbbf
00000300: 25f4 9ebe fa56 45be 1c29 28bd 9602 ad3e
00000310: b81a 76bf b039 983f 579a b2bf d590 dfbe
00000320: 2515 babf c99e c33e 0ebd f1be 1c8b 5ebf
00000330: cebf 9bbf 0729 083f 55aa 843e 844b 4240
00000340: b64a e83e 19d0 383e 69b1 463f 277d bf3f
00000350: edf0 0f3f 45aa 04c0 9de8 23bf 3d04 08bf
00000360: 6a36 f13f e446 4c3e 956e 3abe 45e9 f0be
00000370: e3bb 8f3f 6e40 c03f 8efa bdbf 0d0a c23f
00000380: 6106 b4be f953 debe 559c 913f a03b 63bf
00000390: f250 82bd 5b8f 15bf bc5d e33e 644e 0440
000003a0: 2490 953e f6c9 253d 7535 c13f d2fd df3f
000003b0: 1566 54bf 1101 cf3e a702 b63f 69fd 69bd
000003c0: ce86 c63b a056 013f 4947 6bbd b191 943d
000003d0: 2642 1dc0 ce94 b0bf cb78 b0be 86d7 833e
000003e0: 6321 5e3e 444b 2abf 58a7 9a3e 5ac6 1ac0
000003f0: 305e cf3f 2aa2 063f b16f 423e 9224 1ac0
-0.20675221 0.25723574 -0.16266723 -0.81127673 -0.79615873 1.5360014 1.0487303 -1.2088809
-0.7476082 -1.40671 0.59526575 -0.7024333 -1.523419 0.115337856 1.6823514 -1.771959
1.3607483 0.35261244 -0.85149646 -0.64558136 0.9412791 -0.6499623 0.14785191 -2.435483
0.22232406 0.10008057 -0.36144117 0.7164726 1.2453333 0.1637604 2.3077364 -0.36981425
0.3979923 1.259744 1.1648601 -1.4821979 0.72046095 -0.16480751 0.84624326 1.1829437
0.09210695 -0.20063819 -1.9215304 0.37280798 -0.5970119 1.8053699 2.0269625 -1.6727008
1.1110586 0.48309633 -0.0080614835 0.34866142 -0.3274289 0.69870055 -0.18772246 1.0487477
-0.39393333 -0.7732184 -0.62664694 -0.7922358 -0.83927816 -0.16292362 0.8182668 -0.8450137
-1.5988201 0.8315618 -1.8312616 -0.9274419 -0.043873902 0.23045929 0.9180068 0.19744885
2.1212282 0.8322331 -0.6205157 -0.99633837 0.33442017 1.2321606 -0.30671865 -0.123164676
-0.3395815 -1.6880448 2.1074998 -0.44908214 -0.19938888 -0.31815585 0.049817696 -0.94098
1.5569006 -1.8060089 -0.5498009 1.3980861 0.856375 -1.5386304 0.29652837 -0.89184695
-0.58789724 0.4208524 1.2225391 -1.1191043 0.28608102 -0.4708369 0.47784948 -0.35335046
-1.1495817 0.4138947 -0.7370528 -0.8158873 -3.3785737 2.0490797 -0.31866044 -0.83513474
0.5888896 1.1977342 -0.7083876 -0.09389066 -0.3472355 -0.03336858 -0.84842193 0.6523646
0.26994553 0.5977479 -0.5383993 0.5002235 1.7421858 0.46190125 -0.6259478 -0.609805
0.1715308 0.18011379 1.2566665 0.06924797 1.7105618 0.39843142 0.39186737 1.1687512
0.81743205 0.6364524 -0.7590448 -0.65737563 0.46139908 1.1093147 -1.1273594 0.11397408
2.2692168 -1.0638427 -1.6539041 -1.1505522 -1.0223346 0.13367482 0.11842547 0.93741286
-1.0144798 0.09516047 -1.3850375 1.506939 0.8377048 1.2706991 -0.019162955 -1.7260584
-1.8200175 0.6703738 0.5379575 -0.2168688 1.4953383 -1.1167499 0.023581002 1.5994476
-0.13737904 0.38519165 -0.9411566 2.281554 0.06846019 -1.0595678 0.76751655 1.3731635
-0.07900865 -0.13847296 0.7677252 -0.120735735 -2.1528087 0.64564246 0.62582517 -0.34545842
0.6192771 -0.6910708 -0.52917767 1.1271328 0.19710493 -0.18650736 -1.567745 -1.4631984
-0.31045642 -0.1927146 -0.04105483 0.33791035 -0.9613452 1.1892605 -1.3953351 -0.43665186
-1.4537703 0.3820708 -0.4721455 -0.86931014 -1.2167909 0.531876 0.25911203 3.035859
0.453695 0.18048133 0.77614456 1.4960068 0.56227 -2.0728924 -0.64026815 -0.5313147
1.8844731 0.19948918 -0.18206246 -0.4705297 1.1229213 1.5019662 -1.4842088 1.5159317
-0.35161117 -0.4342344 1.1375834 -0.88762856 -0.06363095 -0.5842187 0.4440745 2.0672846
0.29211533 0.040475808 1.5094439 1.7499335 -0.82968265 0.404305 1.421956 -0.057126436
0.0060585504 0.50522804 -0.05744103 0.07254351 -2.4571624 -1.3795412 -0.34467158 0.2575037
0.21692424 -0.66521096 0.30205798 -2.4183564 1.6200619 0.5259119 0.1898792 -2.408482

cell.xh_to_h.weight f4 [64, 128]
00000000: f043 7a3d cca4 81bd c544 58bd f94a 99bc
00000010: 7948 81bd 66e3 8bbd 7cd8 f7bc b550 65bd
00000020: ba6d 64bd 72ea fbbd 14fc bd3d f82f 9fbd
00000030: 3e6f 1ebe 5008 2b3d 2a9b 963d bd0d 67bd
00000040: 1dbd 533d f8fd 803d e911 bcbc 188c 5a3d
00000050: af48 8ebd 72d9 873d a03b 3ebd afb3 35bd
00000060: 32e3 c93c fa56 a4bc d673 19bd f150 3d3c
00000070: e26b aebd cd42 03bc 2056 e2bc 4393 f33d
00000080: 82ae 263e 5f17 393d 82b4 fd3d 675e 59bd
00000090: df3c f63c e259 2d3d c8e1 833d 2f72 0c3e
000000a0: d3b0 213e 6365 0dbe 7134 a53d 197f 9f3d
000000b0: 880f 243d 2cfa 4ebd 9339 973d d8e7 873d
000000c0: dd90 8f3d b207 89bd ff96 abbc e908 3a3c
000000d0: 1e8c c83d 7e3e 26bd f20d 00be 55e8 9b3d
000000e0: 897f 14bd f891 903b dc5a 08be 25fd 04bd
000000f0: 9654 fd3c 6339 e9bd 0ce5 e73d a613 a03c
00000100: 1cff 11be 5150 fcbc fdcf dfbc 1248 cdbd
00000110: 3c3a 373e dbe1 45be f80d 813e 4cea 30bd
00000120: 5025 09be 20e1 8bbd 0e97 4c3c e15c 97bd
00000130: 1c83 b43d 3705 3dbe 68fb 113d 813d 393c
00000140: 9feb 043e da51 8ebe bb19 51be 1b99 ba3d
00000150: 9aa8 e5bd 5765 32be 2d9f 7d3b d732 343d
00000160: e4bf 15bd 9582 0f3e 227e 493d c0b3 9bbd
00000170: 4d66 c93d d953 34be a10c 30be 0f60 8bbd
00000180: 45da 0d3e 473b 14bd 7f50 30bd c1d0 dcbd
00000190: cafd a0bd df75 90bd 8211 613c 868f e63d
000001a0: 4f63 ac3d 46f8 3abe b831 243e b866 bcba
000001b0: 0717 b53d d5ae 1abe 2034 f0bd 62ec d23d
000001c0: d98f 303d 2041 b33d 4ade ea3d 0a28 5a3d
000001d0: 2b5b 1f3e 7c26 913d ee05 9bbe d7e7 77bd
000001e0: 2f58 843d 545e b93c 6ccb c23d d191 acbd
000001f0: 3b85 883d 0c46 283e 7bff 123c 1a16 2a3e
00000200: 731f 14bd 8ca1 a8bd 8b09 a6bd e6af cdbc
00000210: 0adb efbc f93f 5bbd ecb2 fa3d 51b5 e0bc
00000220: a9ad 5b3d 7366 1c3e 4bc9 0a3e c5f6 d7bc
00000230: 11ad 473e ec94 333e 0cc5 0fbe 718d f93a
00000240: b7d2 1e3d b9c3 b2bd 4b64 603d 773d 14be
00000250: c2fe 4ebd 1b42 893d 9376 193d a05a c43d
00000260: ab8e a1bd b81f 99bc e4a7 693b f76d 0f3e
00000270: 6029 15ba 3de1 a23d 958d 923d a323 7fbd
00000280: b69d 89be 11d8 cdbc c547 a63d cbc6 043d
00000290: c1df 393d 3e25 05be e313 d2bd f4d1 3fbe
000002a0: 0d31 643d db94 db3d 8c9c 363d fc7a 093e
000002b0: 936f 94bb 80b3 ff3c 6b77 7a3d c99e 9bbb
000002c0: a9c6 64bd eabf 283d cc18 00be f150 c43b
000002d0: db46 383d 03f8 143e 8e16 d53d 3787 b9bc
000002e0: 485a cd3d 218d ce3c 2c11 76bd 7882 efbc
000002f0: 761d 30bc 8366 e5bc 26ab 9ebc cb11 85bd
00000300: d40e 06be cf8b b43e c36f f3bd 5b46 f43d
00000310: 8672 f63c a8b3 0f3e a4ed ad3c 1116 93bd
00000320: 6f1f d23d cb4f 523d ac95 6abe 5020 11be
00000330: 013a fd3d 5ef1 033e 51a7 e3bc cc7d 243d
00000340: 302a 433d b818 b2bd f944 77bd eaa4 f0bd
00000350: 931a adbd e9ec d5bd fef1 b53c 9924 4d3d
00000360: 6417 a3bd 50b2 09bd 4f94 4a3e 0fd4 ed3a
00000370: 387b 4cbe 33f6 33be 8940 93bc e09c bc3d
00000380: 1728 d33c c433 263e 9d6d f63d 660a 6e3e
00000390: 3c3e 743e a4cb 4d3b 2988 96bb 5087 cebc
000003a0: 4299 ad3d 2348 febd 6bfd 223c b088 773d
000003b0: d9ba d13c c4e1 d23c 96b9 e0bd 6388 20be
000003c0: 691a 223d 8f0a b33d f5dc fc3d db7c bcbc
000003d0: 234f 863d 8516 d83d 04fd 3b3e 65fb c23d
000003e0: 469e e63d cf9b a6be dd40 3ebe 2c8e cc3c
000003f0: 6a4f 833d 5aa9 d33d 5a1b 803c f2dc 663d
0.061099946 -0.06330261 -0.05279996 -0.018712508 -0.06312651 -0.06830482 -0.030254595 -0.05598517
-0.055768706 -0.12300576 0.09276596 -0.07772821 -0.15472123 0.041755974 0.07353814 -0.056409586
0.051694024 0.06298441 -0.022957759 0.05335626 -0.06947457 0.06633271 -0.04644358 -0.044360813
0.024644468 -0.020061005 -0.037463985 0.0115549425 -0.08516671 -0.008011532 -0.027628958 0.11893322
0.16277507 0.045188304 0.12387945 -0.053068545 0.030058322 0.042322047 0.06439549 0.13715433
0.1579011 -0.13808207 0.08066643 0.07787914 0.040053874 -0.05053155 0.07384028 0.066360176
0.07010052 -0.06690921 -0.020946024 0.011354663 0.0979235 -0.04058694 -0.1250532 0.07612673
-0.03625444 0.004411932 -0.1331591 -0.03246798 0.030924123 -0.11387899 0.11322984 0.01954062
-0.14257473 -0.030800017 -0.027320856 -0.10023512 0.17893308 -0.19324438 0.2520597 -0.043192193
-0.1339314 -0.068300486 0.012487186 -0.07390762 0.0881407 -0.1845902 0.03564015 0.011306168
0.12980507 -0.27796823 -0.20419972 0.09111234 -0.11213799 -0.1742147 0.0038699612 0.043993797
-0.036559954 0.14014657 0.049192555 -0.07602644 0.098339655 -0.1761011 -0.17192318 -0.06805431
0.13852794 -0.036189344 -0.043045517 -0.10782004 -0.078609064 -0.07053732 0.013737084 0.11257844
0.08417379 -0.18258771 0.16034591 -0.0014373874 0.08842283 -0.15105756 -0.11728692 0.10298993
0.043105934 0.08752656 0.114681795 0.05326084 0.15562122 0.070874184 -0.30277961 -0.060523834
0.06462132 0.022627987 0.09511456 -0.0842625 0.06666037 0.16432971 0.008972044 0.16609994
-0.036162805 -0.082339376 -0.08107289 -0.025108289 -0.02927925 -0.053527806 0.12241158 -0.027430208
0.053632412 0.15273456 0.1355335 -0.026362786 0.19499613 0.17537278 -0.14040011 0.0019039345
0.038775172 -0.087287374 0.054783147 -0.14476572 -0.050535925 0.06702062 0.037466597 0.09587598
-0.0788854 -0.018691882 0.003565305 0.14006792 -0.0005690064 0.07953117 0.07155911 -0.062289845
-0.26878136 -0.025127443 0.08119158 0.032416146 0.045379404 -0.13002488 -0.10257699 -0.18732435
0.05571084 0.10721751 0.04458289 0.13425821 -0.0045299022 0.031213522 0.061149042 -0.0047491533
-0.05585352 0.04119865 -0.1250946 0.0059910943 0.044989448 0.14547734 0.104046926 -0.022647483
0.100269854 0.02521378 -0.06007497 -0.029237017 -0.010749212 -0.028002983 -0.01936872 -0.06497534
-0.13091594 0.35262915 -0.11886551 0.11927482 0.030083906 0.14033377 0.02123148 -0.07181943
0.10259902 0.051345628 -0.22908658 -0.14172482 0.12364579 0.12885043 -0.027789744 0.04015903
0.047647655 -0.08696121 -0.06036851 -0.11750205 -0.08452334 -0.10445578 0.022210117 0.05008373
-0.07963446 -0.033617318 0.19783138 0.0018144863 -0.19968879 -0.17574386 -0.017975109 0.09209609
0.025775952 0.16230685 0.12032626 0.23246154 0.23851866 0.0031401897 -0.0045938683 -0.025211006
0.08476497 -0.12416103 0.009948115 0.06043309 0.025601791 0.025742419 -0.10972898 -0.15677027
0.039575968 0.08742248 0.12346832 -0.023008754 0.06558063 0.1055117 0.18358237 0.09520606
0.11260657 -0.32540748 -0.18579431 0.024970137 0.064116314 0.103350356 0.015638042 0.056363054

cell.xh_to_h.bias f4 [64]
00000000: 671a 853c 3321 d9bd f15f 0dbd dc4f bf3d
00000010: a742 a8bd 64ee d6bc 5b8a febc a1b1 3c3c
00000020: be95 8fbd af13 c03c e026 6c3c f611 c3bc
00000030: 316e 39bd bf1e 953d 7538 d7bc 7af5 bdbd
00000040: a9ab a3b7 6cc3 b2bd 7834 c63b aedb 94bd
00000050: 7f09 8b3d ae70 40bc 028d 713c 2212 1ebc
00000060: b725 063e bf19 e63c 8d2e adbb 4dfc 8c3d
00000070: 0c0a 563c d547 3cbd 2ff0 ef3d 3590 68bd
00000080: 6f70 03bd 97c2 173d 06cd d03c 4732 2fbd
00000090: f187 b03d 5d30 56bd d115 e23c 5f50 163d
000000a0: ec39 29bd 5a75 193e 83fa c1bd 4e01 d7bd
000000b0: d2da 84bd cd64 f0bd fd0c aa3d 2d7b 29bd
000000c0: 689a b13d 82ef 4fbd 8a57 133e c578 e4bb
000000d0: 4e58 093e 1311 f4bd e59a 7d3d 974d b23d
000000e0: 88bc 2fbd 8c7c 64bd cf19 6fbd 638f ccbd
000000f0: 671c f3bc bb41 cfbc 3b1f 9a3d c809 5abd
0.016247941 -0.106020354 -0.034515325 0.09341404 -0.08215838 -0.02623672 -0.031071832 0.011516959
-0.07010983 0.023446886 0.014413565 -0.023812275 -0.045271102 0.07281255 -0.026272038 -0.092753366
-1.951105e-05 -0.0872868 0.006048735 -0.07268463 0.067889206 -0.011745615 0.014743092 -0.009647878
0.13100325 0.028088449 -0.0052850903 0.0688406 0.013063919 -0.045966942 0.11715733 -0.05677815
-0.032089647 0.03705081 0.025488388 -0.042772558 0.08619679 -0.052292217 0.027598293 0.03669774
-0.041315004 0.14986172 -0.094716094 -0.10498296 -0.06487049 -0.11737976 0.083032586 -0.041377235
0.08672029 -0.05076552 0.14388862 -0.0069724047 0.13412592 -0.11917319 0.061915297 0.08706205
-0.042904407 -0.05578284 -0.058374222 -0.09988286 -0.02967663 -0.025299897 0.07525488 -0.053231984

lm_head.bias f4 [39]
00000000: f08f b9bc d0af b1bb 61a4 05be 6db4 7f3d
00000010: c8f5 b03c 7777 32bd 7dca 99bd 4986 bbbd
00000020: b4e5 6dbd 3663 94bd 7df3 083d 466b 253e
00000030: 7c2c 74bd 3003 6e3d a08e 833c e78c 60bd
00000040: 6e59 533c e5c6 cdbc 746c 7fbc 501a 7fbd
00000050: a1b8 353d 12f2 4bbd 0a77 d2bb d2f8 2ebd
00000060: 200e 463c 59d6 1bbe 11bc e1bd ac6e ef3c
00000070: 25a1 c6bd e2b7 e2bd ee86 bfbd 9269 d8bd
00000080: 8d8e 2ebe d403 08be aa98 96bd 052d 69be
00000090: 679e dabc 41b1 713d d1e1 39be
-0.022651643 -0.00542257 -0.13050987 0.062427927 0.021601573 -0.04357096 -0.07509325 -0.09156472
-0.05808039 -0.072454855 0.033435334 0.16154203 -0.059612736 0.05810851 0.01605922 -0.054821875
0.01289974 -0.025119254 -0.015589822 -0.062280953 0.04436553 -0.049791403 -0.006422882 -0.042717762
0.012088329 -0.15218486 -0.11022199 0.029227577 -0.09698705 -0.11070229 -0.09351908 -0.10567011
-0.17046566 -0.1328271 -0.07353337 -0.2277108 -0.02668686 0.059006933 -0.18152548

onnx::MatMul_381 f4 [64, 39]
00000000: 3125 aa3e 5e90 373e 08f6 723e 1f4c 09bd
00000010: bd99 7a3e cac3 4b3e e258 cdbb ace7 b73e
00000020: 3a0f 733d 3bc5 6dbd 2b2b 963e 8c98 773d
00000030: d037 16be 6fb7 80be d7a9 77bc b8c1 043e
00000040: 0d1e 58bd ee19 a1bd 6005 a83e e22c 9cbd
00000050: 7be9 20be 5b79 5a3e b3ca cfbd 06d7 d6bd
00000060: 9b8e 2ebd ddf5 0f3d 4674 823e 265e 2abe
00000070: a7eb 003e bd63 253e 5bec 703e ff1b 163e
00000080: ee6a 343e fe79 323e 5894 7fbc 1ab6 e63d
00000090: e1aa 82be f2ac 51be 3a6d 59be e425 33bd
000000a0: f998 253e c84e 293e a336 9c3e a93e 3cbd
000000b0: 59c6 bfbd 3b7a 963d d3c9 3abe 49fd 71be
000000c0: a45c 8fbe b328 8cbe 24e1 44be 3be1 2bbe
000000d0: 512c 6dbe 1082 21be 3c98 13be 96fe 92bc
000000e0: 6359 d8bc 22b5 e23c 0852 f63d 84f8 443e
000000f0: 8cac bf3e ec19 913e df24 5e3e c35f 853e
00000100: 4659 993d c376 d03d f01e 9b3e 90f7 6e3e
00000110: d571 aa3c 421f d83d c023 8e3d a168 563e
00000120: b029 733e e311 d33d 1434 363e c139 20bc
00000130: 5560 d9bc dacc 833c 57ad 773e 63c5 8bbd
00000140: b214 77be c995 9fbd 6698 8bbd 3ab2 a6be
00000150: 5d36 9cbc a062 e8bd 934d 0cbe 078a 223e
00000160: b090 943d 4747 33bc b4ac 5c3e 05c8 e7bc
00000170: 4130 5a3c 67e8 513e d1b0 fe3d 4c0e e23d
00000180: 3b2c 173e dcf9 583e 172c 69bb 8023 bebd
00000190: edc0 f03c 890b 27be 26af c7bc fc8b 86bd
000001a0: 0083 113d 66fa 363d a75e 2a3e 919c 43bd
000001b0: cdfe 8d3d 8dac 9ebb 9482 88bd 7d6c 423c
000001c0: 1bc2 11be 40dd 40be c85b 273e 696e ab3e
000001d0: df4b 5fbe 4735 713e a0ae 393e 298c 693e
000001e0: c0f0 16bd e085 3cbe 85e7 cabd e26e acbe
000001f0: 8480 8fbe 6cc0 61be ec60 e43d 357c a73e
00000200: b9c7 e03d 53c2 26be d768 67be b1ea 1b3e
00000210: 15d5 6ebe d8cd fa3d 5cd3 aa3d ea4a 55be
00000220: a7d1 423c 203b 5d3e 24cb 48be a984 5cbe
00000230: e244 61bc b1dd 8abe 0a13 30be 1889 3fbe
00000240: 42d0 f6bd bb46 873e d4cd 493c d146 ad3d
00000250: d31d 0abc 65b4 91bd e6e0 003e 90e2 d23d
00000260: 8745 853d d9ef e13d e6d5 6b3d 8006 15be
00000270: 5764 d43e bc5d 833e b482 143e 1ea3 933e
00000280: 4b0e 943d e52d 6e3e e652 3a3e 385b c53d
00000290: fc4e 833d 5cf4 8d3d 5f17 57be ff1e d9bd
000002a0: 4458 6ebc 85a4 0fbd 4123 e23d a97c 61be
000002b0: b2c3 033e 0d90 4bbe 5d56 e5bd a21e 47be
000002c0: 7f9f 15be fa61 f5bd 3f28 26be c234 5cbe
000002d0: e038 c6bd 80c5 533c 6e7b 73bd 8a76 59be
000002e0: 8444 10be b558 ec3d 644b 41be 78eb ec39
000002f0: cc96 853d 4938 02be 733c 0fbe 8e07 0d3e
00000300: b71e 72be 34e5 ed3d bd7e d33c 8172 b03e
00000310: ec48 df3d 9a5a abbc fe92 a5bd 7016 07be
00000320: 52b5 2abe 9244 84be e5e4 38be e329 96be
00000330: 56e9 c2be 9127 20be 548a 5f3d eb3b 573c
00000340: 758e b6bc aae2 893c f2ce 17be 508d 77bb
00000350: 5e03 2bbe 1772 08be abf8 a53d 6995 0f3e
00000360: e93f e23d 53f2 74bb 1e4a 9d3d 4a13 e63d
00000370: 9cce 1c3e 9993 c63d 795e 7c3e f265 1c3e
00000380: e845 b2bd 0619 253e c99b edbd 6ea8 ae3c
00000390: 5db0 df3d d60d 193e 435d ac3d 779c dc3d
000003a0: dcce e43c 7c15 a7bd 59fd 5c3e 74dc 363e
000003b0: cf07 8b3e 8869 883e 2842 323e 8f10 683e
000003c0: f0ad 763e f5bd 29be 7d6a 98bd 7ee7 d23c
000003d0: 57ac eebd b819 77bc a33b 1bbe 51ed c8bd
000003e0: e1e0 cd3c 8585 33be 8d1e d23d 7c5d 6abe
000003f0: 37ab 2fbd 99ec 5ebe 7f0d 853d 0d16 2ebd
0.332315 0.17926165 0.23726666 -0.03351986 0.24472709 0.19898906 -0.006266699 0.3591894
0.059340693 -0.05804942 0.2932981 0.060448214 -0.14669728 -0.2513995 -0.015116177 0.12964523
-0.052763034 -0.07866274 0.328166 -0.07625748 -0.15714066 0.21335356 -0.10146084 -0.10490231
-0.042616468 0.035146583 0.25479335 -0.16637477 0.12589894 0.16151328 0.23527662 0.14659117
0.17618915 0.17429349 -0.015599333 0.11265202 -0.25520995 -0.2047613 -0.21233073 -0.043737307
0.16171636 0.16533959 0.30510435 -0.045958195 -0.09364004 0.07347532 -0.18241052 -0.23631777
-0.28000367 -0.273748 -0.1922651 -0.16785137 -0.23161437 -0.15772271 -0.14413542 -0.017943662
-0.02640981 0.027674261 0.12027365 0.19235426 0.3743633 0.2834009 0.21693753 0.26049623
0.07487731 0.10178902 0.3029704 0.23336625 0.020806232 0.10552837 0.069404125 0.2093835
0.23746371 0.10306146 0.17793304 -0.009779395 -0.026535193 0.016088892 0.24187218 -0.06824758
-0.24128988 -0.07792241 -0.06816177 -0.3255785 -0.019068891 -0.11346936 -0.13701467 0.15872966
0.072541595 -0.010942287 0.21550256 -0.028293619 0.013317169 0.2049881 0.12436069 0.11037883
0.14762966 0.21189064 -0.0035579258 -0.09284115 0.02938887 -0.16312994 -0.02437551 -0.06569669
0.035525322 0.044672392 0.1663767 -0.047756735 0.06933365 -0.004842347 -0.06665531 0.011866686
-0.14234202 -0.188344 0.16343606 0.33482674 -0.21806286 0.2355548 0.1813302 0.22807373
-0.03685069 -0.18410444 -0.0990744 -0.33678347 -0.28027737 -0.2204606 0.11151299 0.3271195
0.10975594 -0.16285066 -0.22598587 0.15226246 -0.23323472 0.12246293 0.08341095 -0.20829359
0.011890805 0.21604586 -0.19608742 -0.21534981 -0.013749333 -0.27122262 -0.17194763 -0.18704641
-0.12051441 0.2642115 0.01231714 0.08460773 -0.008429962 -0.07114486 0.12585792 0.102971196
0.06507402 0.110320754 0.057577036 -0.14553261 0.41482803 0.2565745 0.14502984 0.28835386
0.07229289 0.23259695 0.18195686 0.09636539 0.064115494 0.069313735 -0.21005009 -0.10601615
-0.014547411 -0.035069007 0.110418804 -0.2202021 0.1286762 -0.1987917 -0.11198113 -0.19445279
-0.14611624 -0.11981578 -0.1622629 -0.215045 -0.09678817 0.012925506 -0.059443884 -0.21236625
-0.14088637 0.11540357 -0.18876415 0.00045188866 0.06522903 -0.12716784 -0.13987903 0.13772413
-0.2364453 0.11615983 0.02581727 0.3446236 0.109025806 -0.020917226 -0.08084677 -0.13192153
-0.1667073 -0.25833565 -0.18056066 -0.29328832 -0.38068646 -0.15640093 0.05457528 0.013136844
-0.022284726 0.016831715 -0.14825037 -0.0037773438 -0.16700503 -0.13324772 0.0810407 0.14021839
0.11047346 -0.0037375882 0.07680152 0.11234148 0.1531319 0.09696121 0.24645413 0.15273264
-0.0870474 0.16122827 -0.11601979 0.021320548 0.109223105 0.14946684 0.08416226 0.10772031
0.02793067 -0.08158395 0.2158102 0.17857534 0.27154395 0.26643014 0.17408049 0.22662567
0.2408979 -0.16576369 -0.07442186 0.02574515 -0.11653965 -0.015081815 -0.15159468 -0.098108895
0.025131645 -0.17531402 0.10259733 -0.22887224 -0.042887893 -0.21769942 0.06496715 -0.042501498
